apps/onnx/models/mobilenetv2_3.onnx (onnx, 538365 bytes, 110 tensors)

mobilenetv20_features_conv0_weight f4 [32, 3, 3, 3]
-0.1113732 -0.22142911 0.10717469 0.000423799 0.43360132 0.32838288 0.21764971 -0.39811203
-0.38730317 -0.28282806 -0.27035478 0.24268164 0.13888754 0.61522096 0.5934367 0.3277202
-0.8411011 -0.7563363 -0.020712884 -0.10241352 0.07418389 -0.04075026 0.19490804 0.02899244
0.18212868 -0.15171134 -0.19445324 -0.3530111 -0.7514379 -0.49587414 0.12945871 0.36066502
0.29520682 0.21371117 0.43682265 0.19328989 -0.58146507 -1.2492296 -0.81830543 0.22119725
0.5119528 0.45037866 0.35714248 0.645927 0.37275913 -0.15798534 -0.4111524 -0.17997886
0.068148784 0.22189774 0.19275738 0.10416378 0.15743198 0.040877108 0.34585288 0.7058639
0.50164413 -0.15335031 -0.30800363 -0.3389633 -0.24450599 -0.3132296 -0.20579478 0.69218165
1.4083756 1.0181831 -0.33514163 -0.69618887 -0.6322302 -0.37085164 -0.73661935 -0.45982596
0.14388394 0.38368756 0.20855454 -0.058322676 -0.14421473 -0.13465782 -0.1538421 -0.17573951
-0.07008665 0.0030326436 0.028410759 0.03274465 0.039506305 0.13612825 -0.07925401 0.04045034
0.012706912 -0.36894488 -0.033306953 -0.045852955 0.016444465 -0.040009383 0.050430782 -0.1240754
-0.03238139 -0.0031352998 -0.39910343 0.053988192 -0.042283796 0.050918166 -0.026261928 0.01570917
0.076109655 0.0026351993 0.011067749 -0.20527744 0.0654602 0.009907843 0.010871321 0.012633292
-0.037149593 0.113285914 0.057105757 0.018560804 0.02486171 0.06432324 -0.016017186 -0.03643764
0.028231515 0.007819664 0.21229742 0.114750795 0.04468188 0.053302024 -0.09236365 -0.040869977
0.03141203 -0.10578405 0.065507226 0.33518025 -0.15510763 -0.09175724 0.033854622 0.1049093
0.01877424 0.110405564 0.04054946 -0.073690765 0.15732001 -0.08540194 -0.31745866 -0.027035924
-0.07700408 -0.14715566 -0.23104265 -0.091592565 -0.18467416 -0.16994867 -0.020698285 -0.22224356
-0.106553964 0.07972259 0.099106856 0.09839904 0.07870483 0.03301309 0.13510281 0.02522987
-0.15720572 0.053890888 -0.045365307 0.04063211 0.07743833 -0.22457954 -0.42586923 -0.12136565
0.26962677 0.29213032 0.08093528 -0.077187814 0.010602369 0.13988875 -0.32681063 -0.58902365
-0.27798137 0.34208462 0.33698705 0.015820913 -0.058068696 -0.029085487 0.008234239 -0.0611312
-0.0986641 -0.012703515 0.14375804 0.1410194 -0.0033545832 0.103139944 -0.2643678 0.16569124
0.19957186 -0.57316834 0.37580103 0.07206028 -0.3297741 0.2716963 0.27429053 -0.5310912
0.34474742 0.37632397 -1.2295829 0.7537216 0.18172538 -0.72534657 0.48789972 0.058372114
-0.08748882 0.065487415 0.11549939 -0.23601963 0.18179978 -0.009215612 -0.12992805 0.029884752
0.04207134 -0.21806537 -0.07590737 0.07012112 -0.0801053 0.007740148 0.09112893 0.040758803
0.09011579 0.019763025 -0.3657418 -0.10497118 0.084606186 -0.094634816 0.013291737 0.044506107
-0.018315332 0.049501773 -0.035996314 -0.087104745 0.021894397 -0.12732504 -0.058033057 -0.0523313
-0.16372679 -0.17056268 -0.15390612 0.16099484 0.11201393 0.15185814 0.06286865 -0.07566092
0.059548948 0.10519885 -0.069410436 0.054800324 -0.20892867 -0.08915257 -0.12625326 -0.07437501
00000000: a217 e4bd 50be 62be 677e db3d 5731 de39
00000010: fe00 de3e cd21 a83e 91df 5e3e 57d5 cbbe
00000020: 9a4c c6be d7ce 90be f16b 8abe 8981 783e
00000030: 8938 0e3e 1f7f 1d3f 78eb 173f f1ca a73e
00000040: 6752 57bf 419f 41bf 11ae a9bc 2ebe d1bd
00000050: b9ed 973d bfe9 26bd f995 473e 8e81 ed3c
00000060: f17f 3a3e 385a 1bbe c01e 47be dfbd b4be
00000070: 3c5e 40bf 37e3 fdbe d390 043e 16a9 b83e
00000080: 5925 973e 1ad7 5a3e 38a7 df3e c9ed 453e
00000090: e5da 14bf c1e6 9fbf 777c 51bf 8881 623e
000000a0: 570f 033f 0898 e63e 61db b63e 795b 253f
000000b0: 49da be3e e9c6 21be 9182 d2be 614c 38be
000000c0: 9791 8b3d 2939 633e 3162 453e d253 d53d
000000d0: d935 213e c16e 273d a113 b13e 7fb3 343f
000000e0: c06b 003f dd07 1dbe a7b2 9dbe 998c adbe
000000f0: c75f 7abe a15f a0be debb 52be d132 313f
00000100: a745 b43f d353 823f af97 abbe 6f39 32bf
00000110: d7d9 21bf 44e0 bdbe 1693 3cbf 4f6e ebbe
00000120: 5056 133e b272 c43e 528f 553e c2e3 6ebd
00000130: 07ad 13be bde3 09be c988 1dbe 0ff5 33be
00000140: 9789 8fbd 51bf 463b aebd e83c 411f 063d
00000150: 5dd1 213d 3465 0b3e ed4f a2bd 41af 253d
00000160: a730 503c 58e6 bcbe df6c 08bd 4fd0 3bbd
00000170: 8bb6 863c e1e0 23bd 8290 4e3d 3e1b febd
00000180: 59a2 04bd 9a79 4dbb 4957 ccbe b922 5d3d
00000190: c631 2dbd 918f 503d 4123 d7bc 84b0 803c
000001a0: 61df 9b3d 4fb3 2c3b 8155 353c 4034 52be
000001b0: ff0f 863d 8154 223c a01d 323c defb 4e3c
000001c0: 2c2a 18bd 7202 e83d bae7 693d d40c 983c
000001d0: c9aa cb3c e7bb 833d 7936 83bc a33f 15bd
000001e0: c745 e73c 0c1e 003c 7f64 593e 7702 eb3d
000001f0: 5904 373d 3953 5a3d 2729 bdbd 4767 27bd
00000200: e7a9 003d 4fa5 d8bd a728 863d bf9c ab3e
00000210: 89d4 1ebe 38eb bbbd 25ab 0a3d b0da d63d
00000220: 6fcc 993c 501c e23d 3117 263d 2feb 96bd
00000230: 7f18 213e 36e7 aebd f189 a2be 717a ddbc
00000240: 51b4 9dbd f9af 16be 7296 6cbe e294 bbbd
00000250: 391b 3dbe 0607 2ebe 738f a9bc d193 63be
00000260: f738 dabd 9945 a33d 89f8 ca3d 7085 c93d
00000270: ff2f a13d bc38 073d 6458 0a3e dfae ce3c
00000280: 89fa 20be b1bc 5c3d f9d0 39bd db6d 263d
00000290: fd97 9e3d 2ef8 65be 880b dabe 8e8e f8bd
000002a0: 850c 8a3e 1b92 953e 65c1 a53d a514 9ebd
000002b0: 8fb5 2d3c ff3e 0f3e b953 a7be 41ca 16bf
000002c0: 9353 8ebe b725 af3e 9189 ac3e dc9a 813c
000002d0: 71d9 6dbd b044 eebc e7e8 063c b664 7abd
000002e0: 6710 cabd 6722 50bc 4f35 133e 6467 103e
000002f0: 91d8 5bbb 093b d33d 375b 87be f7aa 293e
00000300: 915c 4c3e 29bb 12bf fe68 c03e 5794 933d
00000310: 27d8 a8be c71b 8b3e cf6f 8c3e 98f5 07bf
00000320: bc82 b03e 89ad c03e f962 9dbf e6f3 403f
00000330: 3816 3a3e 50b0 39bf fecd f93e 9917 6f3d
00000340: 572d b3bd 441e 863d f28a ec3d 21af 71be
00000350: b929 3a3e 14fd 16bc dc0b 05be ded0 f43c
00000360: ff52 2c3d 874c 5fbe 5375 9bbd a99b 8f3d
00000370: 3f0e a4bd 11a1 fd3b cea1 ba3d b4f2 263d
00000380: a18e b83d 11e6 a13c 8242 bbbe 21fb d6bd
00000390: 0246 ad3d e6cf c1bd 96c5 593c 094c 363d
000003a0: 090a 96bc 5fc2 4a3d df70 13bd f963 b2bd
000003b0: e15b b33c 7f61 02be 12b4 6dbd 5859 56bd
000003c0: ffa7 27be fca7 2ebe 9199 1dbe d5db 243e
000003d0: 8f67 e53d b380 1b3e 47c1 803d 1df4 9abd
000003e0: 99e9 733d 7f72 d73d 0f27 8ebd 4e76 603d
000003f0: 66f1 55be 9f95 b6bd 8948 01be ed51 98bd

mobilenetv20_features_batchnorm0_gamma f4 [32]
0.23892951 0.43589142 0.46390456 0.46243116 0.44255182 0.43272355 0.40931898 0.35487154
0.485352 0.45353487 0.20653987 0.3718572 0.15213768 0.7275008 0.40402415 0.31387886
0.5600504 0.16122063 0.364181 0.25723207 0.2824318 0.5537956 0.47133633 0.18376698
0.37345868 0.24156176 0.3218682 0.18235797 0.36753297 0.22132967 0.4657504 0.3189657
00000000: f0a9 743e 292d df3e e684 ed3e c7c3 ec3e
00000010: 2796 e23e f18d dd3e 4292 d13e b9b1 b53e
00000020: 0f80 f83e b935 e83e 307f 533e 1164 be3e
00000030: fbc9 1b3e 7e3d 3a3f 41dc ce3e bbb4 a03e
00000040: 775f 0f3f 0517 253e ef75 ba3e ecb3 833e
00000050: e79a 903e 8cc5 0d3f ff52 f13e 692d 3c3e
00000060: fa35 bf3e f75b 773e e9cb a43e 0cbc 3a3e
00000070: 482d bc3e 3fa4 623e d676 ee3e 794f a33e

mobilenetv20_features_batchnorm0_beta f4 [32]
0.41617915 0.23637566 0.2706276 -0.4571261 -0.7142759 -0.35901543 -0.2672305 0.29895082
-0.4150861 -0.7088451 0.010461905 -0.46684694 0.16524433 -1.0191199 -0.52191806 -0.4415774
-0.66569024 0.516547 0.17200412 0.48018023 -0.10714878 -0.720718 -0.4042273 0.18570589
-0.45540574 -0.19452655 0.25634596 0.9774374 0.18397129 0.20016786 -0.8206273 0.34123686
00000000: 6f15 d53e 760c 723e b38f 8a3e 6f0c eabe
00000010: c9da 36bf dfd0 b7be 70d2 88be 1510 993e
00000020: 2a86 d4be df76 35bf 6968 2b3c 9006 efbe
00000030: cf35 293e 8572 82bf 6c9c 05bf 6f16 e2be
00000040: ad6a 2abf 6d3c 043f d921 303e 2fda f53e
00000050: d270 dbbd fa80 38bf e1f6 cebe af29 3e3e
00000060: f12a e9be f831 47be c73f 833e 5639 7a3f
00000070: f862 3c3e cef8 4c3e a114 52bf 99b6 ae3e

mobilenetv20_features_batchnorm0_running_mean f4 [32]
0.0066781687 -0.0014262067 0.0033568633 0.0152558265 -0.012606089 0.010279943 0.005758327 0.0006455718
0.027918296 -0.011254733 -0.002825545 -0.010279971 0.009850918 0.01806467 -0.009216876 -0.011178947
0.02046572 -0.020453969 0.0004801874 -0.016051432 0.021794574 0.015185133 0.020137483 0.013663703
-0.010639915 -0.010255582 0.0011498074 -0.038431697 0.00032307341 -0.009589755 -0.012982464 -0.00055593054
00000000: 8ad4 da3b 8eef baba d2fe 5b3b 93f3 793c
00000010: c589 4ebc 356d 283c 59b0 bc3b 973b 293a
00000020: e9b4 e43c c665 38bc c72c 39bb 536d 28bc
00000030: bf65 213c 5cfc 933c 6102 17bc e727 37bc
00000040: baa7 a73c 158f a7bc a9c1 fb39 4b7e 83bc
00000050: 898a b23c 10cb 783c 5df7 a43c b9dd 5f3c
00000060: 0a53 2ebc 0707 28bc 22b5 963a 8e6a 1dbd
00000070: 2e62 a939 591e 1dbc 67b4 54bc debb 11ba

mobilenetv20_features_batchnorm0_running_var f4 [32]
0.6325704 2.9014761 3.4479232 0.97629267 0.72416013 1.2172047 0.5716532 0.9034021
2.0518126 0.4736183 1.2387972 0.48085228 0.49200073 1.3847038 0.36413485 0.32935306
1.1240578 1.020418 3.4044712 1.4679112 1.3357229 0.69155514 1.1490233 1.4775232
0.5112208 0.42189792 1.069685 2.8625352 3.0663583 3.186294 0.54635847 1.9181906
00000000: 22f0 213f c9b1 3940 c6aa 5c40 51ee 793f
00000010: 8f62 393f 5dcd 9b3f dd57 123f 5c45 673f
00000020: e650 0340 197e f23e e890 9e3f 4532 f63e
00000030: 85e7 fb3e f93d b13f e26f ba3e f7a0 a83e
00000040: 20e1 8f3f 0f9d 823f dbe2 5940 84e4 bb3f
00000050: f8f8 aa3f c209 313f 3213 933f 7b1f bd3f
00000060: 5edf 023f 0103 d83e 70eb 883f c733 3740
00000070: 373f 4440 3eec 4b40 26de 0b3f 4587 f53f

mobilenetv20_features_linearbottleneck0_conv0_weight f4 [32, 32, 1, 1]
0.021614138 -0.0063146134 0.0025145544 -0.021280823 -0.042266086 0.14169542 0.0008640349 -0.005008794
-0.07140977 -0.23900546 0.49265984 0.016231583 -0.3093514 0.023645617 -0.01720888 0.08725636
-0.22175933 -0.10682677 -0.007781319 0.21080229 -0.22100057 0.27662554 -0.051420126 0.41746542
-0.004013531 -0.18029784 -0.0027195064 0.09691353 0.0098137995 -0.7758122 0.14506723 -0.01789858
-0.0031422225 0.00023179271 0.008536256 -0.01967795 0.00096699235 -0.033412214 -0.01393596 0.009529449
0.082675606 0.11335349 -0.4855681 0.00026892617 -0.26957288 -0.02141294 0.0023280887 -0.113806054
0.11795522 0.30519792 -0.0066349544 -0.35951737 0.14489459 -0.09942612 0.014967092 -0.49909285
0.04260736 0.20960882 -0.009984754 -0.22873548 0.0052748774 0.9088354 -0.09425963 0.013349295
0.19970872 -0.17034563 0.19485606 0.02378026 0.09252271 0.02215953 -0.06123256 0.1401458
-0.11993869 0.017153995 0.028673606 -0.0290664 -0.02231069 -0.20115148 -0.16954575 0.07277488
0.05723258 0.10343702 0.09007514 -0.07339326 -0.004243552 0.020147776 -0.06192354 -0.015669623
0.111210175 0.04100656 -0.22186181 0.14453794 -0.12929438 0.0020848631 0.018231047 0.096433714
0.11473249 0.20617774 -0.38357446 -0.21060297 0.147498 -0.022509662 -0.11442377 0.30371472
0.17491913 0.061402623 0.015544882 0.05583295 0.08253764 -0.22986874 0.0040022205 0.08248996
-0.06669083 0.20475844 0.073788196 0.11624682 -0.0989499 -0.074455954 -0.07609856 0.047329668
0.021221824 0.07932853 -0.38468125 -0.056123767 -0.06974048 0.03386366 0.08137357 0.037539754
-0.04987302 0.02523023 -0.036018107 0.11722893 -0.08812092 0.18236603 0.13181175 0.41680697
0.13401864 -0.17969121 -0.09110504 -0.024864359 -0.118001685 0.3340685 -0.09147907 -0.0894846
0.27651727 -0.55101705 -0.09277195 -0.4631346 0.17330088 0.28486606 0.007493962 -0.061078347
-0.17687917 -0.0014353768 -0.3891828 -0.06812208 0.05383242 -0.06944788 -0.38701752 -0.12841034
-0.12363003 0.17082323 -0.100023866 -0.054560713 0.021755666 -0.099451296 -0.014342406 0.56180024
0.10394351 0.15353857 0.019774308 0.19548953 -0.0024160438 -0.092999116 0.081803 -0.017298186
-0.08289424 0.3492008 -0.08055013 0.28534937 -0.0740905 -0.14751743 -0.15355913 0.0020058875
-0.08748236 0.010080009 -0.5303801 0.041152377 0.09458207 0.025490288 0.13410573 0.0055663446
0.2204887 0.07871351 -0.12703592 0.050395124 0.03369369 -0.00793936 -0.25077617 0.00043094417
0.06534565 -0.066668026 0.007446997 0.19840473 0.040100273 0.040506735 -0.07064814 0.024258189
0.09562271 -0.059954204 0.5559421 -0.021055477 0.123609416 0.004985723 -0.20971611 0.009717113
0.15126891 0.019989885 -0.0105089685 -0.08106957 -0.5974736 -0.0070816213 -0.071310095 0.4251446
0.020510381 -0.07880655 0.07310758 0.06100122 0.016256498 0.012011074 -0.07018564 0.09432388
0.11317517 -0.0349277 -0.018946348 0.22660694 -0.010124579 0.0019144148 -0.007524186 -0.048944503
0.017685011 -0.003434321 0.5378509 0.09787521 -0.011418753 0.0279925 -0.24914423 0.025738878
-0.09285821 0.017011156 -0.11619545 0.020637093 -0.56682086 -0.02276047 -0.0027920397 0.12339675
00000000: 2210 b13c d1ea cebb 39cb 243b 1f55 aebc
00000010: 341f 2dbd 9b18 113e 6780 623a cf20 a4bb
00000020: 493f 92bd d9bd 74be e93d fc3e 19f8 843c
00000030: 4f63 9ebe 74b4 c13c a3f9 8cbc 76b3 b23d
00000040: e114 63be fec7 dabd 6ffa febb 8edc 573e
00000050: f94d 62be dda1 8d3e e99d 52bd 07be d53e
00000060: f083 83bb ff9f 38be bf39 32bb 9a7a c63d
00000070: 0fca 203c a19b 46bf 818c 143e 0ba0 92bc
00000080: bfed 4dbb 620d 7339 a7db 0b3c a733 a1bc
00000090: c27d 7d3a 3fdb 08bd a753 64bc 6821 1c3c
000000a0: d451 a93d e025 e83d 629c f8be a9fe 8c39
000000b0: 7505 8abe 316a afbc d992 183b 2613 e9bd
000000c0: 8292 f13d e742 9c3e 086a d9bb a912 b8be
000000d0: 3f5f 143e ec9f cbbd 8938 753c 1989 ffbe
000000e0: 0e85 2e3d b2a3 563e 1897 23bc a239 6abe
000000f0: e1d8 ac3b 70a9 683f 310b c1bd 00b7 5a3c
00000100: 7180 4c3e 166f 2ebe 5988 473e d2ce c23c
00000110: 8c7c bd3d e787 b53c fece 7abd 6182 0f3e
00000120: 6aa2 f5bd 8986 8c3c e9e4 ea3c a91c eebc
00000130: e8c4 b6bc a7fa 4dbe 679d 2dbe ff0a 953d
00000140: b66c 6a3d cad6 d33d 5179 b83d 354f 96bd
00000150: 7f0d 8bbb f30c a53c 8aa3 7dbd 955d 80bc
00000160: 29c2 e33d 7ff6 273d be2f 63be c101 143e
00000170: bf65 04be 33a2 083b 4759 953c 0a7f c53d
00000180: def8 ea3d 4220 533e df63 c4be 4ea8 57be
00000190: b709 173e 2f66 b8bc 0257 eabd 7f80 9b3e
000001a0: 001e 333e 5181 7b3d f6af 7e3c 17b1 643d
000001b0: 7f09 a93d b662 6bbe 0f25 833b 7ff0 a83d
000001c0: 3495 88bd 32ac 513e 441e 973d d012 ee3d
000001d0: 3fa6 cabd 5d7c 98bd 90d9 9bbd c1dc 413d
000001e0: 64d9 ad3c ff76 a23d f1f4 c4be 09e2 65bd
000001f0: 19d4 8ebd 9fb4 0a3d 30a7 a63d 49c3 193d
00000200: a747 4cbd a1af ce3c b987 13bd b915 f03d
00000210: be78 b4bd 29be 3a3e a9f9 063e b967 d53e
00000220: 2f3c 093e f900 38be 4795 babd 57b0 cbbc
00000230: deaa f1bd 070b ab3e 6159 bbbd b443 b7bd
00000240: ac93 8d3e 740f 0dbf 38ff bdbd fa1f edbe
00000250: c975 313e f7d9 913e e98f f53b 4a2d 7abd
00000260: d01f 35be 4123 bcba f842 c7be 9783 8bbd
00000270: 627f 5c3d b13a 8ebd 2927 c6be 007e 03be
00000280: be31 fdbd 49ec 2e3e 50d9 ccbd 0e7b 5fbd
00000290: f038 b23c 1fad cbbd 69fc 6abc 24d2 0f3f
000002a0: 56e0 d43d 3739 1d3e bbfd a13c 682e 483e
000002b0: 7d56 1ebb 5276 bebd 5588 a73d edb4 8dbc
000002c0: 75c4 a9bd 72ca b23e 77f7 a4bd 5019 923e
000002d0: c3bc 97bd cf0e 17be 9b3e 1dbe 3575 033b
000002e0: f429 b3bd 9f26 253c fdc6 07bf 658f 283d
000002f0: 3fb4 c13d 02d1 d03c 0353 093e e265 b63b
00000300: cac7 613e 8c34 a13d b415 02be 1e6b 4e3d
00000310: 6502 0a3d 1714 02bc bc65 80be 59f0 e139
00000320: f1d3 853d 3f89 88bd f005 f43b 9c2a 4b3e
00000330: 2f40 243d 64ea 253d f9af 90bd 1cb9 c63c
00000340: d7d5 c33d 8a92 75bd 3952 0e3f 897c acbc
00000350: ef26 fd3d 475f a33b d2bf 56be 8734 1f3c
00000360: 3de6 1a3e d4c1 a33c cf2d 2cbc cd07 a6bd
00000370: 08f4 18bf f20c e8bb 070b 92bd 8eac d93e
00000380: 6305 a83c 5465 a1bd 6db9 953d 6adc 793d
00000390: 592c 853c 19ca 443c 7dbd 8fbd e12c c13d
000003a0: 62c8 e73d 5910 0fbd 5f35 9bbc a60b 683e
000003b0: 90e1 25bc 1aed fa3a 728d f6bb 087a 48bd
000003c0: 28e0 903c 5812 61bb 99b0 093f cc72 c83d
000003d0: b915 3bbc 8750 e53c aa1f 7fbe 57da d23c
000003e0: 722c bebd fb5a 8b3c e1f7 edbd 1f0f a93c
000003f0: 2c1b 11bf 2a74 babc a7fa 36bb 6fb7 fc3d

mobilenetv20_features_linearbottleneck0_batchnorm0_gamma f4 [32]
0.07813416 0.13730212 0.032272827 0.08606208 0.18483359 0.1107083 0.03913099 0.13486196
0.06883078 0.09975484 -0.17217979 0.11620633 0.08869635 0.119241714 0.12442262 0.16933726
0.113880865 0.12321459 0.11125855 0.046017967 0.1398195 0.08378834 0.09776731 0.054485053
0.10820104 0.08029545 0.11193245 0.16400598 0.08861799 0.12493969 0.12449695 0.12829868
00000000: cd04 a03d ed98 0c3e 8330 043d 5141 b03d
00000010: 0445 3d3e 08bb e23d d147 203d 4119 0a3e
00000020: 27f7 8c3d 444c cc3d e64f 30be 96fd ed3d
00000030: 6fa6 b53d 0035 f43d 49d1 fe3d bf66 2d3e
00000040: 5f3a e93d ee57 fc3d 86db e33d 567d 3c3d
00000050: d82c 0f3e 3999 ab3d 3a3a c83d b82b 5f3d
00000060: 8298 dd3d f171 a43d d73c e53d 2ff1 273e
00000070: 597d b53d 61e0 ff3d 42f8 fe3d bb60 033e

mobilenetv20_features_linearbottleneck0_batchnorm0_beta f4 [32]
0.71056914 0.6295579 0.48405033 0.35869706 0.6722567 0.4928381 0.83414894 0.53598523
0.5180425 0.41417676 0.46319774 0.5580496 0.8277549 0.5187094 0.41642067 0.5569758
0.7692108 0.40863156 0.88401127 0.6096073 0.501488 0.5454406 0.57950515 0.5601061
0.54019266 0.49412915 0.71649307 0.49296638 0.3687022 0.45098633 0.4432216 0.4630645
00000000: dce7 353f b52a 213f 72d5 f73e 24a7 b73e
00000010: 0419 2c3f 4755 fc3e c98a 553f 5436 093f
00000020: 6f9e 043f fa0e d43e 4128 ed3e 57dc 0e3f
00000030: bfe7 533f 24ca 043f 1735 d53e f795 0e3f
00000040: 00eb 443f 2838 d13e 904e 623f 390f 1c3f
00000050: 8461 003f ffa1 0b3f 735a 143f 1d63 0f3f
00000060: 114a 0a3f 7ffe fc3e 176c 373f 1766 fc3e
00000070: 89c6 bc3e aee7 e63e f1ed e23e ca16 ed3e

mobilenetv20_features_linearbottleneck0_batchnorm0_running_mean f4 [32]
0.025186636 -0.20761521 0.25378293 0.11342143 -0.6469716 0.35709253 0.0970713 0.097749874
0.14690909 -0.3168527 -0.15351091 0.4522583 1.396999 0.6059256 0.11763504 0.1395163
-0.6169806 -0.13383125 -0.24183655 -0.48908925 0.005077377 0.3258116 -0.078254715 0.187941
0.121513166 -0.13516846 0.07679408 0.36739174 0.010734358 0.10409495 0.30767223 0.21593833
00000000: 3454 ce3c 1599 54be d6ef 813e 7f49 e83d
00000010: ee9f 25bf d5d4 b63e 51cd c63d 1631 c83d
00000020: 566f 163e 843a a2be f731 1dbe 668e e73e
00000030: ddd0 b23f f11d 1b3f a4ea f03d 5cdd 0e3e
00000040: 71f2 1dbf 0f0b 09be 00a4 77be e869 fabe
00000050: 2060 a63b c7d0 a63e 0244 a0bd 9b73 403e
00000060: e5db f83d 9a69 0abe 3746 9d3d c51a bc3e
00000070: 29df 2f3c bc2f d53d 3787 9d3e f01e 5d3e

mobilenetv20_features_linearbottleneck0_batchnorm0_running_var f4 [32]
0.07358151 0.127645 0.031007953 0.06152354 0.13719986 0.08851551 0.08978757 0.074798524
0.20526344 0.02781598 0.08840873 0.17200187 0.10122258 0.06962288 0.046563648 0.07713858
0.065029666 0.039652962 0.06499688 0.064243026 0.03914871 0.057873942 0.06267254 0.058769267
0.04479007 0.033350877 0.09370746 0.09195878 0.030277468 0.029535886 0.023503276 0.0911629
00000000: e7b1 963d 5fb5 023e 6404 fe3c 1c00 7c3d
00000010: 1f7e 0c3e 9f47 b53d 8ce2 b73d f82f 993d
00000020: 9430 523e 57de e33c a30f b53d 4221 303e
00000030: c94d cf3d 7196 8e3d 86b9 3e3d d5fa 9d3d
00000040: 462e 853d 256b 223d 161d 853d d991 833d
00000050: 665a 203d 3a0d 6d3d 765a 803d 0bb8 703d
00000060: cb75 373d ee9a 083d b2e9 bf3d e354 bc3d
00000070: 7408 f83c 3ef5 f13c f189 c03c 9db3 ba3d

mobilenetv20_features_linearbottleneck0_conv1_weight f4 [32, 1, 3, 3]
0.9385881 4.8370094 -0.16475813 -0.8520857 0.42606872 -2.117913 -0.93935674 -0.63207775
-0.6179657 1.1090466 -0.8492111 0.73442626 -1.8089297 0.82680553 -0.6851216 1.1136189
-0.61642677 0.061435167 -1.6192466 0.48284692 1.0602216 2.354334 0.959312 -0.78055805
0.012615124 -0.1695793 -0.07725331 -0.5173199 -0.64965826 0.89144415 0.2102265 0.66851324
1.5548562 6.087432 -0.8525399 -0.57853 -0.63453966 0.45475882 0.27880237 -0.49855664
-5.1496043 2.173261 -0.7156067 0.016802795 -4.3429985 0.94327444 -0.4250963 0.96877474
1.6644279 1.7517757 -0.09911908 0.995297 0.058168888 1.1583443 2.6880422 -1.1450635
0.13625763 -0.14776988 4.390037 0.4215176 0.33486038 1.5633748 0.3959076 0.30449033
0.64136523 2.3332555 -0.276576 -0.23489913 2.0034618 -1.7279527 0.074587874 -0.6882808
-0.28559574 1.2514395 -1.1602345 0.1064356 0.52873653 1.350259 -0.6574194 0.32231686
0.40609166 2.441644 -1.3217678 -0.42254788 -1.6261137 1.31566 3.4691467 -1.5763866
2.2998145 0.57864565 0.9288072 -0.11130024 -0.46455738 0.63021946 -1.128394 0.031973775
1.7775557 6.2616267 -0.33821133 -0.09965361 -0.60017055 -2.7867472 -0.50597286 0.058958087
-0.708836 -0.167541 0.08877867 -0.5382424 -4.3337097 1.6594942 -0.94894177 0.22944915
-0.27237198 0.10726692 -1.1571575 0.38313383 -0.07960102 -0.25862458 -0.8659993 0.20087838
1.2001625 -0.42946884 -2.4116461 -1.5439417 0.37633103 1.0839653 0.19371949 0.8585033
1.6294918 2.8887005 0.46189907 1.0804113 -0.0498544 -4.538853 0.74941814 0.56464773
2.4118233 1.8034542 0.38162616 -1.0776576 -6.1384654 -1.1901184 0.09077548 -1.1901177
1.5838666 2.7714534 -3.0994127 1.4605085 -3.0476208 2.3439538 1.0053242 -2.590268
-2.6666267 0.32689652 -2.9714055 0.09848111 0.19541062 3.4665866 0.6611089 -1.366261
1.2209029 -1.0886785 -0.13191295 0.3619294 3.3512728 -2.3474138 -0.3277938 0.54444224
1.0514334 -0.17485377 -0.1433595 0.47149998 -2.0677788 1.6322671 -0.32401136 0.68000543
0.050352756 0.09768217 -0.9815558 0.8211508 1.091452 -0.78571165 -0.2083701 -0.7938189
0.3400769 0.6595307 -2.4753954 1.0882405 -0.20949388 -1.6228236 -0.81084055 -0.658186
1.6009538 4.1869426 -0.42349386 -1.3902987 2.5698144 -0.18827906 -0.45058972 1.1918656
-0.69719386 0.54381204 -0.31875548 1.274398 -0.8020965 0.18094276 -0.43107563 1.8938837
-1.2429819 1.1702129 -0.22135235 -0.27346924 3.5010238 -0.38049296 0.29579112 0.7756029
0.66805273 -0.6309764 -0.8245569 0.59952384 0.13331898 -1.7713947 -0.81419075 1.2216395
0.018102884 0.975542 -0.6201841 0.08909302 1.9434749 0.83436215 -1.0118736 1.5983084
-0.6169446 -1.5226525 -0.224815 0.1781792 -3.3118021 1.700242 -1.3024138 0.39705998
-0.86645275 1.3771226 0.010918298 0.6566829 2.2463377 -2.0034373 0.8188682 -0.3429187
3.371902 -0.5358305 -0.747788 1.3045464 0.7664683 -0.61895543 -1.3616617 -0.45334646
00000000: 4f47 703f c8c8 9a40 5bb6 28be 4a22 5abf
00000010: ae25 da3e e38b 07c0 af79 70bf d9cf 21bf
00000020: 0033 1ebf 3df5 8d3f e665 59bf 5c03 3c3f
00000030: 028b e7bf 87a9 533f 2164 2fbf 108b 8e3f
00000040: 25ce 1dbf 71a3 7b3d 7943 cfbf b637 f73e
00000050: 57b5 873f 69ad 1640 7995 753f a7d2 47bf
00000060: aaaf 4e3c 32a6 2dbe fc36 9ebd 146f 04bf
00000070: 0150 26bf af35 643f 9e45 573e af23 2b3f
00000080: 8705 c73f 3ecc c240 0e40 5abf 8b1a 14bf
00000090: 3171 22bf 26d6 e83e 2fbf 8e3e d142 ffbe
000000a0: 8fc9 a4c0 b516 0b40 0032 37bf 04a6 893c
000000b0: d8f9 8ac0 6f7a 713f 39a6 d9be 9f01 783f
000000c0: f90b d53f 303a e03f f2fe cabd c9cb 7e3f
000000d0: 8042 6e3d a044 943f e208 2c40 7191 92bf
000000e0: 1f87 0b3e fd50 17be 2f7b 8c40 28d1 d73e
000000f0: d272 ab3e aa1c c83f 67b4 ca3e 28e6 9b3e
00000100: 8330 243f 0f54 1540 5f9b 8dbe 6689 70be
00000110: b838 0040 8e2d ddbf 87c1 983d 2c33 30bf
00000120: 9b39 92be 2b2f a03f 9082 94bf e8fa d93d
00000130: 475b 073f 49d5 ac3f a34c 28bf b706 a53e
00000140: 3feb cf3e e543 1c40 b02f a9bf 3258 d8be
00000150: 7e24 d0bf 8c67 a83f 8006 5e40 09c7 c9bf
00000160: 2930 1340 1f22 143f 4fc6 6d3f 61f1 e3bd
00000170: 77da edbe 1056 213f 376f 90bf eff6 023d
00000180: f286 e33f 3f5f c840 092a adbe 3117 ccbd
00000190: c7a4 19bf 115a 32c0 7087 01bf 097e 713d
000001a0: 4776 35bf de8f 2bbe 97d1 b53d 41ca 09bf
000001b0: c0ad 8ac0 4e6a d43f d9ed 72bf b8f4 6a3e
000001c0: 5774 8bbe c2ae db3d bd1d 94bf 1e2a c43e
000001d0: dc05 a3bd 716a 84be 21b2 5dbf 10b3 4d3e
000001e0: ed9e 993f 57e3 dbbe 6958 1ac0 e29f c5bf
000001f0: 76ae c03e 60bf 8a3f 675e 463e dfc6 5b3f
00000200: 3093 d03f 78e0 3840 097e ec3e eb4a 8a3f
00000210: 2134 4cbd 493e 91c0 ded9 3f3f c18c 103f
00000220: 505b 1a40 96d7 e63f 8164 c33e aff0 89bf
00000230: 4f6e c4c0 cd55 98bf 7fe8 b93d c755 98bf
00000240: 24bc ca3f 7e5f 3140 c75c 46c0 f1f1 ba3f
00000250: 380c 43c0 5703 1640 77ae 803f f3c6 25c0
00000260: 03aa 2ac0 fb5e a73e 822b 3ec0 77b0 c93d
00000270: b919 483e 8edc 5d40 6f3e 293f a4e1 aebf
00000280: 8c46 9c3f d159 8bbf 3014 07be cf4e b93e
00000290: 417b 5640 073c 16c0 97d4 a7be 9160 0b3f
000002a0: 5f95 863f de0c 33be d5cc 12be 7268 f13e
000002b0: 7d56 04c0 21ee d03f d1e4 a5be d614 2e3f
000002c0: b13e 4e3d 970d c83d 3e47 7bbf f036 523f
000002d0: b3b4 8b3f 6624 49bf f95e 55be b737 4bbf
000002e0: 8f1e ae3e 01d7 283f e16c 1ec0 774b 8b3f
000002f0: 9085 56be afb8 cfbf 3f93 4fbf e17e 28bf
00000300: 0eec cc3f 6ffb 8540 30d4 d8be 4ff5 b1bf
00000310: d777 2440 3acc 40be b2b3 e6be 0d8f 983f
00000320: 4c7b 32bf 4437 0b3f eb33 a3be 791f a33f
00000330: 3256 4dbf 0f49 393e f2b5 dcbe c86a f23f
00000340: 081a 9fbf 89c9 953f 31aa 62be 2904 8cbe
00000350: c610 6040 f9cf c2be ef71 973e e98d 463f
00000360: 8105 2b3f ab87 21bf 2916 53bf 657a 193f
00000370: c584 083e 10bd e2bf ce6e 50bf af5e 9c3f
00000380: 804c 943c 1fbd 793f 63c4 1ebf 6776 b63d
00000390: c9c3 f83f c298 553f 1385 81bf 5f95 cc3f
000003a0: 15f0 1dbf 47e6 c2bf e735 66be 9c74 363e
000003b0: 91f4 53c0 88a1 d93f 7fb5 a6bf 724b cb3e
000003c0: d9cf 5dbf 8e45 b03f a9e2 323c 5f1c 283f
000003d0: ffc3 0f40 5138 00c0 59a1 513f 0a93 afbe
000003e0: 3ecd 5740 302c 09bf 096f 3fbf 60fb a63f
000003f0: 4437 443f dd73 1ebf ee4a aebf 071d e8be

mobilenetv20_features_linearbottleneck0_batchnorm1_gamma f4 [32]
0.22176205 0.11614178 0.15865292 0.15199988 0.23966756 0.17114118 0.18509696 0.18513237
0.18222894 -0.105614536 0.15957643 0.20632826 0.23485063 0.22805277 0.16268986 0.19303502
0.18568891 0.1438208 0.275955 0.16631494 0.17323041 0.21223189 0.16183887 0.30692515
0.18056595 0.120245926 0.23861171 0.19835149 0.16079034 0.18505241 0.13652241 0.1643043
00000000: 9715 633e bedb ed3d e975 223e dba5 1b3e
00000010: 6a6b 753e a23f 2f3e 0f8a 3d3e 5793 3d3e
00000020: 399a 3a3e 6f4c d8bd 0168 233e b747 533e
00000030: af7c 703e aa86 693e 2c98 263e f9aa 453e
00000040: 3c25 3e3e c345 133e f949 8d3e 774e 2a3e
00000050: 5063 313e 5153 593e 17b9 253e 4b25 9d3e
00000060: 48e6 383e 7f43 f63d a156 743e a71c 4b3e
00000070: 39a6 243e 617e 3d3e 88cc 0b3e 633f 283e

mobilenetv20_features_linearbottleneck0_batchnorm1_beta f4 [32]
1.0372171 1.286585 0.7645959 0.63749385 1.0695087 0.68375754 0.95500237 0.983942
1.1442939 0.7509784 0.53547287 0.8184818 0.653771 0.70566714 0.8696737 0.6195802
1.0603019 0.953925 0.9876165 0.5514197 0.7370944 1.0045751 0.89888275 0.6950104
0.80814415 0.9077865 1.2572032 0.8444108 0.80721474 0.79061514 0.710506 0.8736357
00000000: 88c3 843f d1ae a43f 8fbc 433f cc32 233f
00000010: a9e5 883f bc0a 2f3f 097b 743f 9fe3 7b3f
00000020: 3978 923f 1f40 403f c014 093f 0688 513f
00000030: 895d 273f 9aa6 343f f0a2 5e3f cf9c 1e3f
00000040: f9b7 873f 6e34 743f 6fd4 7c3f d729 0d3f
00000050: 38b2 3c3f eb95 803f 2e1d 663f 34ec 313f
00000060: 89e2 4e3f b264 683f 09ec a03f 4e2b 583f
00000070: a0a5 4e3f c165 4a3f b9e3 353f 97a6 5f3f

mobilenetv20_features_linearbottleneck0_batchnorm1_running_mean f4 [32]
0.6259091 -0.08340238 1.0731103 2.4088242 -5.6092577 3.416944 7.1468477 1.289602
0.96621925 2.1216595 3.4753535 -2.8919 -3.574096 -1.3611552 1.3506237 -2.4090965
-1.706663 0.24021752 1.8781426 0.2166945 -0.6346282 1.8033999 0.29285672 3.0439944
-0.74524486 0.8165344 -1.4304581 2.3333535 0.6243105 -0.7540254 -0.058508925 -1.2871289
00000000: 943b 203f dece aabd ae5b 893f 2d2a 1a40
00000010: 0a7f b3c0 36af 5a40 fab2 e440 ae11 a53f
00000020: 255a 773f 45c9 0740 316c 5e40 e414 39c0
00000030: fdbd 64c0 553a aebf 3de1 ac3f a32e 1ac0
00000040: ef73 dabf 95fb 753e fa66 f03f 2ae5 5d3e
00000050: fe76 22bf cfd5 e63f 51f1 953e ced0 4240
00000060: 5ec8 3ebf 6608 513f 4019 b7bf aa55 1540
00000070: d0d2 1f3f cf07 41bf 0ea7 6fbd a4c0 a4bf

mobilenetv20_features_linearbottleneck0_batchnorm1_running_var f4 [32]
0.22989172 0.0070356475 0.011941582 0.344277 2.0481818 0.31869152 0.15113443 0.3205068
0.02445417 0.29733592 1.7788979 0.2507434 0.39783472 0.124014854 0.5302636 1.4152616
0.44728205 0.22874638 0.36106277 0.02638339 0.17491536 0.2815105 0.03391161 0.17097923
0.11403666 0.111470014 0.2730483 0.5534582 0.2158785 0.3852625 0.14644961 0.3443634
00000000: bc68 6b3e 4a8b e63b a0a6 433c 1345 b03e
00000010: 6915 0340 892b a33e fcc2 1a3e 7819 a43e
00000020: 1d54 c83c 6a3c 983e edb2 e33f 7061 803e
00000030: feb0 cb3e 80fb fd3d 5bbf 073f 4b27 b53f
00000040: 2702 e53e 7e3c 6a3e 38dd b83e fb21 d83c
00000050: 031d 333e 2522 903e e6e6 0a3d 2e15 2f3e
00000060: 0d8c e93d 644a e43d fdcc 8b3e 70af 0d3f
00000070: 410f 5d3e 2041 c53e e3f6 153e 6650 b03e

mobilenetv20_features_linearbottleneck0_conv2_weight f4 [16, 32, 1, 1]
0.14592288 0.24640287 0.1281399 -0.20045927 0.010646965 0.23539506 0.12987405 -0.11505931
-0.21658596 0.5391261 0.064658634 0.3865401 0.13534532 0.07167686 -0.1794946 -0.21994635
0.0015208925 -0.23530068 -0.19981192 0.10219425 -0.16487636 0.26354516 0.05847079 0.05058747
0.30596706 -0.12272935 -0.61140496 0.0261164 -0.27434787 0.24082085 -0.12668319 -0.10549699
-0.16627492 -0.3487994 -0.3626039 -0.20933223 0.16772658 -0.23693779 -0.2870749 -0.44243386
-0.07340328 -0.0072599715 0.12579049 0.34951824 0.150178 0.06829434 -0.0033010193 -0.3667587
0.1698258 0.37170005 0.39400315 -0.115548186 -0.34247395 -0.26209638 -0.52233416 0.2564849
-0.24505554 0.15387817 0.029011015 0.41092008 0.011773109 0.29672387 0.36126685 0.21036114
-0.015031523 -0.17397954 0.16131471 -0.07635015 0.26944068 0.21430418 0.4125046 0.26709965
-0.55757767 0.16633157 0.13274497 0.20465526 0.32714579 0.020012153 0.19855168 0.32885334
-0.22214496 0.020196587 -0.5293696 -0.1435086 0.12170112 0.38953355 -0.058998313 -0.54603153
-0.4223847 -0.04235327 -0.66209906 0.30548406 0.15680219 0.10002588 0.0036235468 -0.216478
-0.021616075 -0.16244204 -0.06111383 0.0854755 0.13094734 0.4085408 0.20919368 -0.17821375
-0.116095476 0.0041514696 0.030283947 0.35094917 0.13544162 0.19692913 0.1506835 0.31524098
0.39788932 -0.068863474 0.40555808 -0.30843547 -0.10454071 0.1743326 0.24241756 0.1607386
0.030171929 -0.61601186 -0.055628683 -0.10920674 0.25435567 0.04628023 -0.15258871 0.378454
-0.612734 0.62215906 0.087064214 0.07462419 -0.30293977 -0.1813307 -0.26383254 0.15870212
-0.14826338 0.07524378 -0.088353604 -0.108689375 0.054068185 -0.41332012 0.31402442 0.07168781
0.24983312 -0.23587705 0.2910476 -0.3049591 -0.3425526 0.1495862 0.18501352 0.08167731
-0.33911484 0.14992882 0.26102778 -0.03707437 0.24383828 0.25640574 0.24503912 -0.18560685
-0.12239872 0.3886689 -0.12684537 -0.016179087 -0.5931599 0.074975915 0.38823244 -0.30863544
-0.04273015 -0.39171764 -0.12591241 0.042131923 0.52702 0.25434753 -0.27270988 -0.26856306
0.1657467 -0.28172746 -0.098639116 -0.0175421 0.33250412 -0.35940096 0.17327441 -0.20646957
-0.24325737 -0.11529333 -0.043174103 0.24164012 0.0011597684 0.11057629 -0.431184 0.3872511
0.7216349 0.018089475 0.1560352 0.4274883 0.0056423126 -0.13979588 -0.18610996 0.4796242
-0.048569296 0.08533947 0.36020902 0.11533933 0.07877695 -0.012024436 -0.06057095 0.1419804
-0.045305185 -0.32940996 0.2235824 -0.23304096 -0.06287294 -0.5077366 -0.045656946 -0.029006077
-0.2978768 0.18485987 0.14681096 -0.090261154 0.118663065 0.3109739 0.336117 -0.2629631
-0.007692457 0.13344888 0.0944814 0.027266499 -0.057041533 0.013018393 0.10776918 0.002899609
-0.026519613 -0.21484685 0.0030716287 0.20816948 -0.32174766 -0.47779033 -0.06323408 0.4698463
0.0002259333 0.22681138 -0.07879793 -0.23633876 0.16501956 0.37589148 -0.58700037 0.0055781784
-0.14342374 -0.21737042 -0.18800932 -0.2501069 -0.45540977 0.38887218 0.0076498045 0.43000486
00000000: cf6c 153e 0951 7c3e 1b37 033e 3245 4dbe
00000010: 9c70 2e3c 670b 713e b4fd 043e 37a4 ebbd
00000020: b6c8 5dbe 2b04 0a3f bf6b 843d 96e8 c53e
00000030: f797 0a3e 51cb 923d 6fcd 37be 9e39 61be
00000040: af58 c73a a9f2 70be 7f9b 4cbe 384b d13d
00000050: 59d5 28be 64ef 863e 117f 6f3d cf34 4f3d
00000060: b7a7 9c3e 8759 fbbd 0985 1cbf 0ff2 d53c
00000070: 5377 8cbe be99 763e 3db9 01be ce0e d8bd
00000080: f943 2abe d695 b2be 38a7 b9be 305b 56be
00000090: 84c0 2b3e d29f 72be 7bfb 92be b186 e2be
000000a0: 7554 96bd 0ee5 edbb 39cf 003e 0ef4 b23e
000000b0: 43c8 193e e7dd 8b3d ea55 58bb ccc7 bbbe
000000c0: d1e6 2d3e 784f be3e c8ba c93e 87a4 ecbd
000000d0: bf58 afbe 7f31 86be b1b7 05bf fd51 833e
000000e0: d7ef 7abe 3d92 1d3e 82a8 ed3c 1e64 d23e
000000f0: 00e4 403c 31ec 973e f8f7 b83e e968 573e
00000100: c746 76bc b127 32be af2f 253e 785d 9cbd
00000110: 21f4 893e 8e72 5b3e ce33 d33e 49c1 883e
00000120: 69bd 0ebf d352 2a3e 4cee 073e 2691 513e
00000130: a77f a73e 87f0 a33c 2251 4b3e 775f a83e
00000140: f879 63be 5073 a53c c484 07bf ebf3 12be
00000150: 703e f93d f170 c73e 37a8 71bd b9c8 0bbf
00000160: cf42 d8be 9f7a 2dbd 537f 29bf 6868 9c3e
00000170: c190 203e 5eda cc3d 0779 6d3b 69ac 5dbe
00000180: 3214 b1bc 3557 26be 7f52 7abd c70d af3d
00000190: 0f17 063e 422c d13e de36 563e aa7d 36be
000001a0: 77c3 edbd 0d09 883b 0a16 f83c 9caf b33e
000001b0: 35b1 0a3e caa7 493e c74c 1a3e 4467 a13e
000001c0: 26b8 cb3e 4b08 8dbd 4fa5 cf3e 41eb 9dbe
000001d0: 7119 d6bd 3f84 323e 4f3c 783e a998 243e
000001e0: 1f2b f73c f4b2 1dbf e7da 63bd c9a7 dfbd
000001f0: e83a 823e 5790 3d3d 3740 1cbe b9c4 c13e
00000200: 23dc 1cbf d145 1f3f b94e b23d 91d4 983d
00000210: ec1a 9bbe c1ae 39be 0f15 87be cf82 223e
00000220: 5bd2 17be 6919 9a3d bcf2 b4bd 8998 debd
00000230: 9a76 5d3d b29e d3be cfc7 a03e 0fd1 923d
00000240: 41d4 7f3e c189 71be 3104 953e 9923 9cbe
00000250: 0e63 afbe 202d 193e 2f74 3d3e 6f46 a73d
00000260: 76a0 adbe f186 193e 6fa5 853e 4bdb 17bd
00000270: beb0 793e 9d47 833e 89eb 7a3e b90f 3ebe
00000280: 2eac fabd 9cff c63e c1e3 01be 018a 84bc
00000290: 54d9 17bf f98c 993d 67c6 c63e 7705 9ebe
000002a0: cf05 2fbd 378f c8be 2fef 00be 8692 2c3d
000002b0: c8ea 063f d739 823e a1a0 8bbe 1981 89be
000002c0: 81b9 293e 953e 90be 4e03 cabd 73b4 8fbc
000002d0: fb3d aa3e 6703 b8be d96e 313e c26c 53be
000002e0: 7618 79be e91e ecbd 54d7 30bd 8270 773e
000002f0: 5f03 983a d275 e23d 26c4 dcbe c745 c63e
00000300: 11bd 383f 6130 943c b1c7 1f3e bfdf da3e
00000310: 26e3 b83b a726 0fbe 9c93 3ebe 4e91 f53e
00000320: 99f0 46bd 76c6 ae3d 516d b83e 0737 ec3d
00000330: cf55 a13d 2402 45bc 3f19 78bd 4f63 113e
00000340: ee91 39bd 6ca8 a8be c9f2 643e 4aa2 6ebe
00000350: 87c3 80bd 07fb 01bf c702 3bbd 279e edbc
00000360: 4f83 98be e84b 3d3e 9d55 163e d7da b8bd
00000370: 9f05 f33d f937 9f3e 8717 ac3e 19a3 86be
00000380: 0211 fcbb d3a6 083e 777f c13d fe5d df3c
00000390: 62a4 69bd 194b 553c 16b6 dc3d 5e07 3e3b
000003a0: a93f d9bc d000 5cbe 614d 493b 612a 553e
000003b0: 1cbc a4be efa0 f4be df80 81bd b28f f03e
000003c0: 82e8 6c39 3e41 683e cf60 a1bd ca02 72be
000003d0: e3fa 283e d974 c03e a845 16bf 27c9 b63b
000003e0: acdd 12be 5a96 5ebe 8485 40be 030e 80be
000003f0: 782b e9be 411a c73e 36ab fa3b 9929 dc3e

mobilenetv20_features_linearbottleneck0_batchnorm2_gamma f4 [16]
0.5097491 0.61927754 0.6573996 0.5558042 0.616456 0.63819605 0.6152222 0.494633
0.56167245 0.65675646 0.5526585 0.4200797 0.4637764 0.56267685 0.6189385 0.63545656
00000000: eb7e 023f f988 1e3f 574b 283f 2f49 0e3f
00000010: 0fd0 1d3f d160 233f 347f 1d3f 8940 fd3e
00000020: c4c9 0f3f 3121 283f 077b 0d3f b014 d73e
00000030: 1a74 ed3e 970b 103f c172 1e3f 48ad 223f

mobilenetv20_features_linearbottleneck0_batchnorm2_beta f4 [16]
-0.0010560675 -0.0006787155 -0.0007046026 -0.0009398605 -0.0008966192 -0.0002117379 -0.000514975 -0.0010324727
-0.00079254253 -9.0901565e-05 -0.0004453391 -0.0009805578 -0.00074558466 -0.000764019 -0.00114701 -0.0003888977
00000000: bf6b 8aba d4eb 31ba 14b5 38ba f860 76ba
00000010: 190b 6bba f605 5eb9 63ff 06ba 0954 87ba
00000020: a1c2 4fba 68a2 beb8 677c e9b9 0f86 80ba
00000030: 5773 43ba 7248 48ba 4557 96ba f7e4 cbb9

mobilenetv20_features_linearbottleneck0_batchnorm2_running_mean f4 [16]
0.020797767 -0.4769341 -0.46140683 1.7337008 0.39333165 -0.8451347 1.2453403 -0.48207274
0.8380969 -2.1938257 2.286595 0.04284363 -1.1523691 -0.37927714 -3.0483253 -0.7846339
00000000: 1460 aa3c b530 f4be 843d ecbe e8e9 dd3f
00000010: c462 c93e bf5a 58bf 5067 9f3f 3dd2 f6be
00000020: 858d 563f a467 0cc0 9357 1240 cd7c 2f3d
00000030: d580 93bf 9d30 c2be c317 43c0 c4dd 48bf

mobilenetv20_features_linearbottleneck0_batchnorm2_running_var f4 [16]
0.020222526 0.05529038 0.0633321 0.026319651 0.03692028 0.09430827 0.044809967 0.051626276
0.038704567 0.13497591 0.048960157 0.053612366 0.037982535 0.045080412 0.052102003 0.04991737
00000000: b6a9 a53c 2a78 623d 43b4 813d 4f9c d73c
00000010: b839 173d b224 c13d a88a 373d 1376 533d
00000020: ae88 1e3d 2037 0a3e 728a 483d a498 5b3d
00000030: 9393 1b3d 3da6 383d e968 553d 2876 4c3d

mobilenetv20_features_linearbottleneck1_conv0_weight f4 [96, 16, 1, 1]
-0.2662723 0.12235927 -0.17675793 -0.14175795 -0.04847276 0.025720164 0.1824788 -0.2227247
-0.037595 -0.12036116 -0.42806223 0.20491946 0.025416149 -0.20868348 -0.008696929 0.10014521
0.19013955 -0.15854698 -0.058587857 -0.016011832 -0.071352474 0.1202787 0.44164246 0.041667722
-0.2264166 0.042384647 0.23307106 0.24955937 0.017638152 0.19820951 -0.29317495 0.09112506
-0.0437291 -0.101808205 -0.21845843 0.09859112 -0.10591955 0.14831223 -0.32158363 0.06574286
0.011530281 0.18892048 -0.09355669 0.6845095 -0.85645574 0.078503974 0.3902829 -0.23372127
-0.02529131 -0.15706097 0.034771565 -0.029241918 0.15232553 0.13140172 -0.11757089 -0.022522358
-0.17459318 0.18965572 -0.073839955 0.018029563 0.030208077 0.07602596 0.045052465 0.33409345
0.0052283946 -0.23332119 0.2824385 -0.13893712 0.058010492 -0.13914508 0.07666124 0.08825011
-0.055883773 -0.12799974 -0.2693691 0.06172367 -0.027060624 0.12208981 0.019662218 -0.1914751
0.031103702 0.025644524 -0.118747815 0.08807642 0.08783429 0.16046767 -0.051333692 0.018132405
-0.00036208704 0.08993744 -0.037050996 -0.019425234 -0.00094428944 0.045128223 0.003227241 0.39201206
0.15528671 -0.4280822 -0.008908416 0.17534411 0.15551879 0.0220765 0.16911353 -0.06018817
-0.083436474 -0.056799747 0.00806902 -0.19415627 -0.12045038 -0.36194137 0.25185895 0.059427883
0.020575317 0.17573425 -0.21461783 0.07317234 -0.041806474 -0.0055582477 0.16300775 0.051989112
0.19394785 -0.21932343 0.15891938 -0.070094265 -0.13512063 -0.21753289 -0.091848664 -0.184422
-0.033199254 0.050424602 0.087240286 0.058015678 -0.4200141 -0.16689526 0.17621952 -0.03255933
-0.115395196 0.052079108 -0.054889526 -0.1947143 -0.28611505 0.1285436 0.13213123 0.14169055
0.13878252 -0.15834546 -0.085476115 -0.077541955 0.22932252 0.16853036 0.18206073 0.053671367
-0.054244038 -0.0051909774 0.19166604 0.23984872 0.17491959 0.06675536 -0.254082 -0.059458945
-0.027291756 0.14216952 -0.05414626 0.08370337 -0.11817425 0.21703003 0.024112761 -0.15172361
0.14961743 -0.27232084 -0.18899693 0.09164088 0.029919416 0.0440729 0.12953353 -0.114249475
0.07208834 -0.15950502 0.25147843 0.27224788 0.20398463 -0.21157335 -0.3250086 0.27002037
-0.08043358 -0.10149885 0.18709399 -0.32358244 -0.3517924 0.19033119 -0.3319681 0.051608924
-0.13525386 0.08848357 0.0052474556 -0.029953524 0.25724402 -0.009079517 -0.45114496 -0.038207795
0.22727454 -0.057279382 -0.1471061 -0.12549663 0.12158137 -0.21624497 0.19122459 -0.13712384
-0.009617425 -0.04740087 -0.11565191 0.04212826 -0.18669495 -0.3821079 0.077952705 -0.010819153
0.12307704 -0.32850024 0.02239546 -0.024117129 0.026016664 -0.06084334 -0.050287835 -0.51853675
-0.27874425 -0.32261133 -0.28328857 -0.011220003 -0.21398261 0.038028892 -0.3294827 -0.04637507
-0.39522612 -0.18132474 0.19064297 -0.08461004 0.13206118 0.021954266 -0.30836502 -0.19401644
-0.041999493 -0.21932973 0.322492 -0.20276676 0.089045756 -0.032446142 -0.024052514 0.03776343
-0.1901707 0.1732168 -0.31049275 0.12635528 0.15142544 0.28259298 0.15591393 0.2561514
00000000: d854 88be 7f97 fa3d 0800 35be ff28 11be
00000010: 5f8b 46bd 18b3 d23c b9db 3a3e f211 64be
00000020: 37fd 19bd e97f f6bd f92a dbbe 68d6 513e
00000030: 8735 d03c 1fb1 55be 907d 0ebc ef18 cd3d
00000040: f1b3 423e 245a 22be d2f9 6fbd 3f2b 83bc
00000050: 3f21 92bd ae54 f63d f61e e23e c6ab 2a3d
00000060: c1d9 67be 869b 2d3d 2eaa 6e3e 7e8c 7f3e
00000070: e37d 903c 6ff7 4a3e 071b 96be c79f ba3d
00000080: 491d 33bd d280 d0bd 91b3 5fbe 24ea c93d
00000090: 59ec d8bd 29df 173e 9ca6 a4be 31a4 863d
000000a0: 81e9 3c3c 5f74 413e a69a bfbd 043c 2f3f
000000b0: af40 5bbf b1c6 a03d 29d3 c73e a154 6fbe
000000c0: b92f cfbc 97d4 20be a16c 0e3d bf8c efbc
000000d0: 39fb 1b3e 2c8e 063e 02c9 f0bd cf80 b8bc
000000e0: 8ec8 32be 1c35 423e 6739 97bd bcb2 933c
000000f0: ee76 f73c 80b3 9b3d ef88 383d 4c0e ab3e
00000100: f452 ab3b c0eb 6ebe c79b 903e 8845 0ebe
00000110: 699c 6d3d 0c7c 0ebe 9100 9d3d 79bc b43d
00000120: 62e6 64bd 5d12 03be bfea 89be f6d1 7c3d
00000130: 3eae ddbc 390a fa3d a912 a13c 0c12 44be
00000140: 31cd fe3c 7714 d23c 0e32 f3bd 6961 b43d
00000150: 77e2 b33d a351 243e 4743 52bd 698a 943c
00000160: 80d6 bdb9 1f31 b83d c9c2 17bd ab21 9fbc
00000170: 318a 77ba 5fd8 383d 1f80 533b ceb5 c83e
00000180: 7b03 1f3e 972d dbbe 9bf4 11bc 688d 333e
00000190: 5140 1f3e c7d9 b43c 192c 2d3e df87 76bd
000001a0: bee0 aabd daa6 68bd ec33 043c e7d0 46be
000001b0: b0ae f6bd 6150 b9be a8f3 803e a76a 733d
000001c0: 918d a83c aef3 333e c7c4 5bbe 61db 953d
000001d0: 443d 2bbd f621 b6bb 81eb 263e 89f2 543d
000001e0: 449a 463e 5296 60be c3bb 223e 958d 8fbd
000001f0: 105d 0abe f1c0 5ebe 271b bcbd 1fd9 3cbe
00000200: f1fb 07bd 078a 4e3d 09ab b23d d9a1 6d3d
00000210: 170c d7be 97e6 2abe e472 343e ef5c 05bd
00000220: 5154 ecbd e750 553d d7d3 60bd 2f63 47be
00000230: ac7d 92be efa0 033e 694d 073e 5417 113e
00000240: 011d 0e3e 5025 22be 1a0e afbd 51ce 9ebd
00000250: 86d3 6a3e 3993 2c3e 216e 3a3e 82d6 5b3d
00000260: ff2e 5ebd 1319 aabb 1a44 443e e79a 753e
00000270: 1f1e 333e 09b7 883d 0917 82be 398b 73bd
00000280: f692 dfbc e394 113e 78c8 5dbd ac6c ab3d
00000290: 5705 f2bd 1f3d 5e3e 2088 c53c 6f5d 1bbe
000002a0: 5035 193e a36d 8bbe 6988 41be 37ae bb3d
000002b0: 9019 f53c c985 343d 70a4 043e a1fb e9bd
000002c0: 0da3 933d 4955 23be c8c1 803e 1364 8b3e
000002d0: 59e1 503e afa6 58be 8767 a6be 1c40 8a3e
000002e0: 5cba a4bd a1de cfbd 9195 3f3e 99ac a5be
000002f0: 221e b4be 2ee6 423e b9f7 a9be e163 533d
00000300: fd7f 0abe e036 b53d d9f2 ab3b 1861 f5bc
00000310: 7db5 833e 41c2 14bc 79fc e6be c77f 1cbd
00000320: a8ba 683e c99d 6abd fba2 16be 3082 00be
00000330: a7ff f83d 526f 5dbe 61d0 433e 316a 0cbe
00000340: 6792 1dbc 6a27 42bd e9da ecbd af8e 2c3d
00000350: f62c 3fbe a6a3 c3be aba5 9f3d d142 31bc
00000360: d10f fc3d 2f31 a8be af76 b73c 4991 c5bc
00000370: e620 d53c de36 79bd 9efa 4dbd d3be 04bf
00000380: 91b7 8ebe 502d a5be 330b 91be 1ad4 37bc
00000390: 421e 5bbe 2fc4 1b3d f5b1 a8be c9f3 3dbd
000003a0: 145b cabe 31ad 39be e937 433e 0748 adbd
000003b0: 0c3b 073e 6fd9 b33c 05e2 9dbe 3fac 46be
000003c0: a907 2cbd f997 60be ac1d a53e 17a2 4fbe
000003d0: 9f5d b63d 3fe6 04bd c709 c5bc d4ad 1a3d
000003e0: 1cbc 42be bf5f 313e e8f8 9ebe 4763 013e
000003f0: 450f 1b3e 07b0 903e e7a7 1f3e 4726 833e

mobilenetv20_features_linearbottleneck1_batchnorm0_gamma f4 [96]
0.11448281 0.291039 0.19599959 0.11088918 0.11658264 0.24041869 0.052106682 0.27913022
0.16053666 0.103301935 0.17037393 0.4285374 0.27560475 0.34809276 0.41298506 0.3465865
0.29181632 0.20788553 0.19570543 0.32326636 0.20460296 0.21620819 0.0663622 0.16237126
0.11230707 0.20659472 0.04134645 0.16707744 0.18970169 0.081702024 -0.14146142 0.26386592
0.29965422 0.064759605 0.10784041 0.3256074 0.3830976 0.45910886 0.04117301 0.062657386
0.16893792 0.2767751 0.20277712 -0.49717924 0.49711853 0.13397677 0.54346156 0.39649975
0.41545632 0.40530962 0.052942105 0.30336916 0.106289275 0.0802644 0.29731524 0.25834727
0.3108107 0.28667095 0.38809592 0.10685788 0.34841222 0.12672168 0.32286587 0.17030074
0.19357632 0.25573942 0.030899284 0.27264902 0.20617828 0.2531152 0.18838152 0.1246147
0.009784126 0.22544526 0.21232615 0.14604807 0.091913 0.3388152 0.39633062 0.35233185
0.36886632 0.44194177 0.08010948 0.06489486 0.114613704 0.055405762 0.309997 0.076269336
0.26208317 0.2154937 0.0428004 0.17375888 0.38210773 0.10425955 0.26092377 0.2215943
00000000: f775 ea3d 1003 953e 1eb4 483e de19 e33d
00000010: e1c2 ee3d 5130 763e d16d 553d 28ea 8e3e
00000020: b963 243e f78f d33d 8176 2e3e 4169 db3e
00000030: 111c 8d3e 3739 b23e c772 d33e c973 b13e
00000040: f368 953e f2df 543e 0167 483e 2b83 a53e
00000050: 7083 513e ae65 5d3e e8e8 873d a744 263e
00000060: 4001 e63d 918d 533e e55a 293d 5916 2b3e
00000070: 2941 423e 6453 a73d 43db 10be 6f19 873e
00000080: 476c 993e afa0 843d 6fdb dc3d 03b6 a63e
00000090: 5e25 c43e 5110 eb3e 08a5 283d 8452 803d
000000a0: 10fe 2c3e 77b5 8d3e cea4 4f3e 478e febe
000000b0: 5286 fe3e 3531 093e 4c20 0b3f 0402 cb3e
000000c0: b1b6 d43e be84 cf3e d2d9 583d 3453 9b3e
000000d0: 31ae d93d a961 a43d b439 983e 1846 843e
000000e0: 9422 9f3e 89c6 923e 82b4 c63e 4ed8 da3d
000000f0: 1663 b23e 54c3 013e ad4e a53e 5163 2e3e
00000100: df38 463e 47f0 823e 7f20 fd3c a798 8b3e
00000110: 6620 533e 5198 813e 16e7 403e fe35 ff3d
00000120: 994d 203c 1fdb 663e 076c 593e a08d 153e
00000130: e23c bc3d 3079 ad3e d9eb ca3e d764 b43e
00000140: 0cdc bc3e 3146 e23e 7010 a43d 99e7 843d
00000150: 97ba ea3d 27f1 623d edb7 9e3e 1933 9c3d
00000160: c42f 863e 61aa 5c3e 794f 2f3d d9ed 313e
00000170: a0a3 c33e 0886 d53d cd97 853e 9ee9 623e

mobilenetv20_features_linearbottleneck1_batchnorm0_beta f4 [96]
0.36920822 0.019333838 0.7411499 0.2654167 0.24005535 0.048466496 0.5354509 0.039595127
0.23060702 0.19200823 -0.48113152 0.006648355 -0.023521362 0.047236256 -0.015566157 0.11580896
-0.015231637 -0.0030626191 0.37657598 -0.017973496 0.15314938 0.18993273 0.36418006 0.4655008
0.22646496 0.09883553 0.24557139 0.32795593 0.06782823 0.27115452 0.27961466 0.014849393
0.0725796 0.3228024 0.3559584 0.07170462 -0.018560426 -0.008538273 0.25877878 0.2875371
0.16551186 0.047890663 -0.0053322534 -0.015642487 -0.0055849627 0.17881855 -0.049436692 0.006797149
-0.006720983 0.14444691 0.43783528 0.12614356 0.23448828 0.18972994 -0.036802333 -0.030492868
0.027484331 0.07744839 0.014722691 0.3003496 0.0056649153 0.34734508 0.05808231 0.2551948
-0.022790764 0.11437326 0.312027 -0.030291704 0.07952455 0.057988044 0.09865293 0.24831356
0.5476379 0.104025975 0.14172743 0.27587613 0.5364422 0.06649953 0.056694932 0.017192082
0.06495991 -0.034531504 0.28719202 0.27939394 0.31366834 0.33278286 0.006234851 0.31067678
0.07833105 -0.40459776 0.2375646 0.27657616 -0.009274278 0.32321587 0.124829836 0.0677196
00000000: dc08 bd3e ff61 9e3c 00bc 3d3f b3e4 873e
00000010: 12d1 753e ce84 463d 4f13 093f 802e 223d
00000020: 3f24 6c3e ce9d 443e df56 f6be 72da d93b
00000030: dfaf c0bc ce7a 413d 3209 7fbc 3f2d ed3d
00000040: 1e8e 79bc 39b6 48bb 91ce c03e 273d 93bc
00000050: 31d3 1c3e ba7d 423e cf75 ba3e 1f56 ee3e
00000060: 6ee6 673e 486a ca3d 1177 7b3e d7e9 a73e
00000070: 87e9 8a3d c4d4 8a3e a729 8f3e de4a 733c
00000080: 9da4 943d 5b46 a53e 2e40 b63e dfd9 923d
00000090: 090c 98bc 1de4 0bbc a77e 843e 1038 933e
000000a0: f17b 293e 0029 443d 2fba aebb ac24 80bc
000000b0: 1002 b7bb 361c 373e 217e 4abd 9eba de3b
000000c0: b13b dcbb e4e9 133e f22b e03e c72b 013e
000000d0: b21d 703e 9148 423e 0bbe 16bd 2ecc f9bc
000000e0: d226 e13c 439d 9e3d 7137 713c 6cc7 993e
000000f0: c1a0 b93b 37d7 b13e b7e7 6d3d e5a8 823e
00000100: b2b3 babc 873c ea3d 01c2 9f3e 4f26 f8bc
00000110: c4dd a23d df84 6d3d 8c0a ca3d e945 7e3e
00000120: ff31 0c3f 920b d53d ff20 113e a33f 8d3e
00000130: 4754 093f e830 883d f238 683d 69d6 8c3c
00000140: b409 853d e870 0dbd d50a 933e b90c 8f3e
00000150: 2399 a03e 8462 aa3e b94d cc3b 0711 9f3e
00000160: 086c a03d 7027 cfbe 2244 733e 649b 8d3e
00000170: 24f3 17bc 8d7c a53e c9a6 ff3d 93b0 8a3d

mobilenetv20_features_linearbottleneck1_batchnorm0_running_mean f4 [96]
0.000771556 -0.0003053437 -9.662108e-05 -7.0185226e-05 2.527935e-05 -0.00031648492 0.000111114656 0.00015042596
0.00045005576 -0.00044032303 -0.00016362588 0.00013409779 7.232923e-05 0.00053556124 0.0017661582 -0.0004008737
-1.3021935e-05 0.0007276511 0.00040677655 -2.802437e-05 0.00015298827 0.00011257633 -0.00016121389 0.00045597518
0.000103746635 -6.66063e-05 0.00015707196 3.371219e-05 -0.0004422916 -7.2425246e-05 -0.00081941905 0.0004305025
0.00032325962 7.3550385e-05 0.000107346204 0.0005048937 -5.9885442e-05 0.001973536 -0.00011119379 0.00035407784
-2.5356825e-05 0.0009836835 0.00011596923 -0.0013620572 3.905955e-05 -0.00072974834 0.00035591156 -0.000570404
-0.0016453156 0.0006184038 0.00011174754 0.00018865301 0.0010398253 -0.00049613207 -0.0003567474 0.00048307786
-0.00075508707 -0.00030421483 0.0008467857 -0.00093861483 -6.938852e-05 0.0008032709 0.00025576146 0.0007417028
0.00031220893 0.000102009304 -0.00031445452 0.0007226781 -0.000103570244 0.00026735794 -0.00015966671 0.00011968048
-6.011202e-05 -7.808582e-05 -0.00020503394 -0.00067502004 0.00014481 3.008702e-05 2.5884261e-05 -0.0012420283
-7.528977e-05 0.0012663219 -0.00010282376 -0.00025063675 -0.00027503006 0.0009662137 -0.0010202919 0.00020422433
-3.519465e-06 1.7301973e-05 -0.00044571995 -0.00036148858 0.00040116784 0.00013929121 0.00024133534 0.00018291496
00000000: 3f42 4a3a 8a16 a0b9 0ca1 cab8 6830 93b8
00000010: fe0e d437 e3ed a5b9 3a06 e938 a9bb 1d39
00000020: 76f5 eb39 28db e6b9 fd92 2bb9 9a9c 0c39
00000030: 76af 9738 e864 0c3a 6f7e e73a 5b2c d2b9
00000040: c978 5ab7 d7bf 3e3a a044 d539 e015 ebb7
00000050: 7a6b 2039 f516 ec38 860b 29b9 f40f ef39
00000060: 8d92 d938 fcae 8bb8 afb3 2439 3066 0d38
00000070: 60e3 e7b9 02e3 97b8 48ce 56ba 11b5 e139
00000080: 2c7b a939 103f 9a38 0e1f e138 d85a 043a
00000090: 812d 7bb8 7156 013b b630 e9b8 86a3 b939
000000a0: 5eb5 d4b7 f1ee 803a 8234 f338 0e87 b2ba
000000b0: dfd3 2338 954c 3fba a499 ba39 2a87 15ba
000000c0: a1a7 d7ba 601c 223a 015a ea38 28d1 4539
000000d0: bf4a 883a dc0e 02ba d309 bbb9 9d45 fd39
000000e0: 09f1 45ba 067f 9fb9 d4fa 5d3a 600d 76ba
000000f0: ae84 91b8 9992 523a b917 8639 d56e 423a
00000100: f9af a339 d4ed d538 5fdd a4b9 1b72 3d3a
00000110: da33 d9b8 2d2c 8c39 356c 27b9 f8fc fa38
00000120: ca20 7cb8 01c2 a3b8 61fe 56b9 d4f3 30ba
00000130: 23d8 1739 6263 fc37 0722 d937 8ecb a2ba
00000140: e3e4 9db8 b6fa a53a 16a3 d7b8 e567 83b9
00000150: e931 90b9 8149 7d3a 51bb 85ba 0d25 5639
00000160: f32f 6cb6 b423 9137 85af e9b9 2d86 bdb9
00000170: d653 d239 b30e 1239 f60e 7d39 dccc 3f39
