apps/onnx/models/mobilenetv2_2.onnx (onnx, 147936 bytes, 30 tensors)

mobilenetv20_features_linearbottleneck4_conv0_weight f4 [192, 32, 1, 1]
000000 51 db b9 3c 61 15 3f 3d ca da 48 bd 0f c2 8e 3c
       0.022687586 0.046651248 -0.04903678 0.017426519
000010 e7 08 9c bc af 42 11 3d 6c 79 c7 3c 72 62 68 3b
       -0.019047214 0.035463985 0.02434989 0.0035459069
000020 be ad 7b 3d 12 4c 60 be 5f 26 38 3d d8 64 b6 bc
       0.06144499 -0.21904019 0.04495847 -0.022264883
000030 27 f9 02 3e 79 4b 5c bc ef f0 8f 3d b0 98 c7 3d
       0.12790357 -0.013445728 0.07028376 0.0974592
000040 e1 cd 7c 3c 57 e7 7c bc b9 5d 0f bd 63 dd 0d bb
       0.015429945 -0.015436015 -0.03500149 -0.002164685
000050 81 a7 2d bd 57 56 89 3c 31 ec ed bc 0f 8f 21 bd
       -0.042396072 0.016764803 -0.029043289 -0.039443072
000060 a9 5e 32 3b 30 f5 fa bc 7c c7 86 bc a2 4b 3b bc
       0.0027217066 -0.030634493 -0.016452543 -0.0114316065
000070 27 f8 a3 3d 9e ad 4a bd 09 bf 56 bd 4c c0 10 bd
       0.08006316 -0.04948198 -0.05242828 -0.03533964
000080 b9 ef 25 bd 50 84 d8 3b 19 f8 96 3d 49 41 c0 bc
       -0.04051182 0.0066075698 0.073715396 -0.02346863
000090 27 d7 8e bd 09 a4 ec 3d 16 2d 74 3d ef b2 b3 3a
       -0.06974631 0.11554725 0.05961331 0.0013709943
0000a0 b2 ea d2 3c 8e 35 7a bc 73 73 95 3d 7f 27 98 bb
       0.025746677 -0.0152715575 0.07297411 -0.00464338
0000b0 77 b5 79 bd b7 81 56 bd 0e 2e d6 3d 1e ef 3f 3d
       -0.060964074 -0.0523698 0.10458003 0.0468589
0000c0 97 6b 86 bd 29 c9 bb 3c 57 25 02 bd 86 8f 5e bc
       -0.0656349 0.02292307 -0.03177389 -0.013584023
0000d0 d7 f8 ac 3d 79 89 3b be 57 d2 59 bd e2 68 be bc
       0.084459 -0.1831416 -0.05317911 -0.023243371
0000e0 61 45 29 3d 1f 24 1d bb 75 40 16 bc 09 97 af 3c
       0.04132593 -0.0023977829 -0.009170641 0.021434324
0000f0 d8 5d 51 3d 9c bf 3b bc 78 fb a2 bd 4f e0 e0 bc
       0.051114887 -0.011459257 -0.0795812 -0.027450709
000100 2e c5 69 bc 62 4d 4e 3c ef 4c fe 3d 30 52 88 3d
       -0.014268203 0.012591692 0.12417018 0.06656301
000110 cf 19 08 bd 2e ad ec 3c fc ed 2e 3e 8f 88 13 3c
       -0.033227738 0.028891172 0.17082971 0.009004726
000120 a9 ee 06 3b 13 12 8f bd 19 6a c3 bd 99 7d 5f 3b
       0.002058903 -0.06985869 -0.09541721 0.0034101962
000130 be f1 b0 bd d7 90 de bc 04 5d 22 be 3d b4 07 3e
       -0.08639859 -0.027168674 -0.15855795 0.13252349
000140 1f 3e 2d 3e 48 ab 53 bc 5f fb 50 bd cf 9f 63 bc
       0.16918229 -0.012919255 -0.051020976 -0.013893082
000150 90 0f 34 3e 84 e5 41 3d 48 7c cc bd 7f 31 33 3d
       0.17584062 0.047338024 -0.09984642 0.043748375
000160 f3 46 09 3d 39 0a 80 3d af 69 11 bc c2 4d fd 3d
       0.033514928 0.0625195 -0.008875295 0.12368347
000170 7a 5b be bd 2c 71 28 3e 81 7c 04 3d c7 cf bf bc
       -0.092947915 0.16449422 0.0323453 -0.023414506
000180 b0 d6 6a 3d 8b 57 1e bc 27 00 06 bd 96 fd 51 bd
       0.05733365 -0.009664427 -0.03271499 -0.05126723
000190 60 e0 e4 bd 7f 43 26 3e 39 48 76 3d e7 11 23 bd
       -0.11175609 0.16236685 0.06012747 -0.039811995
0001a0 27 d3 c4 3d d9 bc a0 bd ea 70 c6 3d 2c e4 a2 bd
       0.096105866 -0.0784852 0.096895054 -0.079536766
0001b0 34 39 38 bd 57 1a c2 3d 97 57 33 3d 70 67 8c 3d
       -0.04497643 0.0947768 0.043784704 0.06855667
0001c0 51 90 37 3b 9f 9c 9f bc 7e 13 77 be e9 dd df 3d
       0.0028009603 -0.019483862 -0.2412853 0.10930998
0001d0 d9 5c 41 be 18 f6 e4 3d 6e f1 e8 bc b9 94 b7 bd
       -0.18883075 0.11179751 -0.028435435 -0.089639135
0001e0 b5 cd 0d 3d 77 3c 91 3e 07 fb 97 ba 98 ca 36 bc
       0.034620006 0.28366444 -0.0011595198 -0.011156701
0001f0 19 f7 d6 bd 7e 4b dd bd b1 d0 d2 3c ee b4 54 3b
       -0.10496349 -0.108054146 0.025734277 0.0032456475
000200 62 9d fb bc 05 5d 92 3d df 2f 79 bd 52 13 70 3d
       -0.030714694 0.07146648 -0.06083667 0.058612175
000210 11 01 d2 bd d7 a3 85 3d af 6a 51 bc b6 5a 79 3c
       -0.1025411 0.065253906 -0.012781783 0.015219381
000220 01 1e ab 3c 88 67 0f bd 0f ce bf bd 75 5e 11 bc
       0.02088833 -0.035010844 -0.093654744 -0.008872618
000230 11 46 72 bd 00 22 1c 3d 1f 10 b1 3d 0f 21 f9 3c
       -0.05914885 0.038118362 0.08645653 0.030411271
000240 71 3c 20 3c b1 ba 56 bd a1 c0 1f 3d d3 b5 87 3c
       0.009780035 -0.052424137 0.039002065 0.016566193
000250 c9 c8 1f bb 8c 38 8d bd 18 62 be bd bf 8a be 3c
       -0.0024381152 -0.06895551 -0.09296054 0.023259519
000260 f6 0f 35 bd c1 43 99 bc 72 bd ce bc a1 57 f7 3d
       -0.044204675 -0.018709065 -0.025236819 0.12077261
000270 9f 38 39 3d 25 b1 12 bd 5c 96 b6 3b 47 0e af bd
       0.045220014 -0.03581347 0.0055721235 -0.08547645
000280 11 9a 72 bc b6 ea ab bc 7e 0d fd ba c9 15 fe 3c
       -0.01480724 -0.020985942 -0.0019306389 0.031016247
000290 ac 5c 08 be 76 bd d1 bc fe 14 73 3d e9 37 57 bc
       -0.13316602 -0.025603037 0.05934619 -0.013135889
0002a0 c7 0d 8a bd f1 e4 4e bd 89 13 e8 bc 4f 4b e1 3c
       -0.06740909 -0.050511304 -0.028329628 0.02750173
0002b0 2c 52 17 3c 61 45 85 3d e8 fc 16 3b 69 b4 bb 3c
       0.0092359 0.065073736 0.0023038927 0.022913175
0002c0 10 19 05 3e 9c 7e 06 bd 72 3a b6 bd 3f a1 14 bd
       0.12997842 -0.032835588 -0.08897866 -0.03628659
0002d0 59 1a a8 3b 3c 3a 9f bd 20 fd 40 3b 61 bb dd bc
       0.005130094 -0.07774779 0.002944775 -0.027066888
0002e0 83 b1 9d bd 49 03 fa bc 99 66 22 3d 18 85 28 3e
       -0.07699873 -0.030519145 0.039648626 0.16457021
0002f0 37 d6 0e bd 6f e9 b9 3c 84 5a 19 bd 5f 4f 90 3b
       -0.03487226 0.022694318 -0.037439838 0.004403993
000300 b9 11 d8 bc 7d dd 20 3d 57 97 2e 3d 49 a3 8f 3d
       -0.026375638 0.039273728 0.042624798 0.07013566
000310 60 99 94 3c 59 a5 ba 3d 91 a4 01 3d f7 cd 22 bd
       0.018139541 0.09113569 0.031651083 -0.039747205
000320 d1 51 03 3e 91 eb 18 bf 8a 57 c9 3d 3d 6a 0d bd
       0.12824179 -0.59734446 0.0983115 -0.034525145
000330 4f 5e a7 3e ab 7e 2a bc 8e 6c 56 3d 8f d8 a7 bb
       0.3268914 -0.010406177 0.05234962 -0.0051222513
000340 af 14 91 3d 91 13 8e bc dc 60 25 3d 41 ab 6f 3b
       0.07084023 -0.017343314 0.040375575 0.003657058
000350 47 f3 95 3d 62 17 56 3d 9e 99 ff 3c a1 24 04 bd
       0.07321792 0.052268393 0.03120118 -0.032261495
000360 47 65 6c 3c 1f ad 20 3d e1 36 22 bb 80 1d b5 bd
       0.014428443 0.0392276 -0.0024751949 -0.08843517
000370 0f 3b c4 3d ca 17 49 3d 4f 9a 30 ba 95 72 1b bd
       0.09581577 0.049094953 -0.0006736861 -0.03795107
000380 22 d3 fe bc 89 f5 9e 3c 64 61 0a bc eb 62 15 3d
       -0.031106535 0.01940419 -0.008446071 0.03647129
000390 a8 2c a7 3d 6e 8a f7 3c 77 5d a3 bd 7e 72 f4 3d
       0.081628144 0.030217376 -0.079768114 0.119359
0003a0 91 86 7f bd 9f e5 51 bd 10 20 0c 3e 34 2a c0 3c
       -0.062384192 -0.051244374 0.13684106 0.023457624
0003b0 a1 b5 df bb 17 4e 3e be db 4c 00 3e 21 55 b0 3d
       -0.006827072 -0.18584476 0.12529318 0.08609987
0003c0 97 98 b8 3d 59 db 73 bd d9 ec f5 3c a2 b5 e7 3d
       0.09013479 -0.059535358 0.030020164 0.113139406
0003d0 f8 00 16 be 14 31 b5 3d e1 48 d6 bd 61 ea 9f bc
       -0.14648807 0.088472515 -0.10463119 -0.01952094
0003e0 89 d8 3e ba ae 71 73 bd ec b6 33 bd 50 46 18 3e
       -0.0007280191 -0.059434585 -0.04387562 0.14870572
0003f0 18 5a ae bc e1 1d d5 bd 59 2a 54 3d 69 a1 0a 3d
       -0.021283194 -0.104060896 0.0517982 0.03384534

mobilenetv20_features_linearbottleneck4_batchnorm0_gamma f4 [192]
000000 17 62 e6 3d 52 2a bd 3d 21 fe 13 3e f1 bd c1 3d
       0.11249178 0.092365876 0.14452411 0.094600566
000010 2e f0 d9 3d a7 f4 db 3d d1 2a ec 3d 27 16 b1 3d
       0.10641514 0.10740023 0.11531604 0.08646803
000020 4f 9b fb 3d 20 42 fc 3d 12 05 bb 3d c8 0a 5c 3e
       0.12285482 0.123173 0.091318265 0.21488488
000030 d0 da 00 3d 4f a3 35 3d 47 b8 d4 3d 63 97 8a 3d
       0.031458676 0.044345196 0.103867106 0.06767156
000040 8f d0 0b 3d 86 ca ce 3d fe 82 ba 3d 98 2a f7 3d
       0.034134444 0.10097222 0.09107016 0.12068671
000050 d7 fe f1 3d 1f e6 ca 3d 27 25 3f 3e 7c b0 c7 3d
       0.11816185 0.09907173 0.18666516 0.097504586
000060 09 a6 ea 3d f9 98 49 3d e9 5b df 3d c4 13 ad 3d
       0.1145745 0.04921815 0.10906202 0.084510356
000070 2a 0d e0 3d c8 53 05 3e a1 9f b0 3d 11 55 8f 3d
       0.10940011 0.13020241 0.08624197 0.06998647
000080 ff 82 da 3d 19 8e dd 3d 74 05 1d 3e e6 4b c3 3d
       0.10669517 0.108181186 0.15334111 0.09535961
000090 79 94 08 3e 31 93 32 3e ba ae fb 3d d1 f6 e0 3d
       0.13337888 0.17438962 0.12289186 0.109845765
0000a0 a8 e8 cd 3d 50 c2 db 3d 98 63 a7 3d 3a 8d fb 3d
       0.10054141 0.107304215 0.08173293 0.12282796
0000b0 4f 31 d9 3d 02 a0 f9 3d 64 b2 9e 3d 4e 37 fe 3d
       0.10605108 0.12188722 0.07748869 0.12412892
0000c0 80 1e 03 3e 9f f1 cc 3d 0e 7e de 3d 78 bc dd 3d
       0.12804604 0.10007023 0.10863887 0.10826963
0000d0 79 6d a8 3d a0 b2 a5 3d 09 25 f8 3d 74 a8 18 3e
       0.08224005 0.08090711 0.12116439 0.1490801
0000e0 9f cb 32 3e 20 17 fb 3d e0 c5 68 3d b7 89 1f 3e
       0.17460488 0.1226027 0.056829333 0.15579878
0000f0 02 c2 ec 3d cf 8f 13 3e 49 28 89 3c 39 e3 f9 3d
       0.115604416 0.14410327 0.016742842 0.122015424
000100 ed 52 20 3d ef d2 3c 3e 92 78 d9 3d dd 39 01 3e
       0.039141584 0.1843984 0.106187 0.1261973
000110 81 de 09 3e e1 16 96 3d 68 c8 d1 3d 28 99 39 3e
       0.13463785 0.073285826 0.102433026 0.1812483
000120 29 3c c1 3d d1 2b b5 3d b4 03 b5 3d cf 10 d2 3d
       0.09435303 0.08846248 0.08838597 0.10257112
000130 f1 be 6e 3d e8 70 08 3e 22 df f1 3d c1 aa a9 3d
       0.058287565 0.1332432 0.11810137 0.08284522
000140 d0 93 6a 3e d8 59 fe 3d d1 bd 7e 3d 11 a2 25 3e
       0.22907948 0.1241948 0.06219274 0.16175105
000150 7a 6f da 3d 1f 14 21 3e 1d d1 23 3e b1 3c 84 3d
       0.10665794 0.15730332 0.15997739 0.064568885
000160 5e 19 76 3d 01 73 35 3e 59 b7 88 3d fd d0 15 3e
       0.060082786 0.17719652 0.06675596 0.14630504
000170 a9 e8 59 3e df a7 48 3e 2f e5 28 3e 61 3f a1 3d
       0.21280159 0.19595288 0.16493677 0.07873417
000180 81 f9 12 3e fe c4 f5 3d 61 3c fc 3d 88 24 cd 3d
       0.1435299 0.12000464 0.12316204 0.100167334
000190 8d 30 91 3d 17 a3 b9 3d 6f a9 04 3e f1 6b cc 3d
       0.070893385 0.0906431 0.12955259 0.09981526
0001a0 57 9a 06 3e e9 2b 65 3d 53 bf 21 3e 9e 5c de 3d
       0.13144813 0.05595008 0.1579564 0.10857509
0001b0 d9 d9 b5 3d 83 f7 1e 3e b4 59 a4 3d 48 78 17 3e
       0.08879442 0.15524106 0.08024922 0.14791977
0001c0 c6 01 d2 3d 5a 94 d8 3d 59 d6 d7 3d 5d 0f a5 3d
       0.102542445 0.10575171 0.105389304 0.08059571
0001d0 27 2c d1 3d 39 95 c7 3d b1 e4 a5 3d c1 7e 06 3e
       0.102134995 0.09745259 0.0810026 0.1313429
0001e0 7f 26 e3 3d 09 88 e6 3d f9 c0 5d 3d 32 93 2f 3e
       0.11091327 0.112564154 0.05413911 0.17145994
0001f0 18 95 d7 3d a9 2b 9b 3d 28 de 6e 3e 27 54 96 3d
       0.10526484 0.07576687 0.23326933 0.073402695
000200 07 86 04 3e 39 5c 2e 3e 35 4e 21 3e 69 9a a8 3d
       0.12941752 0.17027368 0.1575249 0.082325764
000210 3c 29 c2 3d 1f 0b e4 3d 99 de 73 3e 50 f9 19 3e
       0.09480521 0.11134934 0.23815383 0.15036511
000220 37 18 9f 3d 7f 3f b6 3d 92 2a ce 3d 33 7d 24 3e
       0.077682905 0.0889883 0.100667134 0.16063385
000230 df 7d fe 3d 8e ac d6 3d 41 53 e2 3d 16 a2 cd 3d
       0.12426352 0.10482131 0.11051036 0.10040681
000240 66 e8 cf 3d 3d b7 99 3d b7 f6 c5 3d 66 2c 54 3e
       0.10151748 0.07505653 0.09666198 0.20720062
000250 99 3c 6a 3d e2 ed f4 3d f4 bc a8 3d 02 2f 5f 3d
       0.057186697 0.11959435 0.08239165 0.05448819
000260 99 39 0e 3e 7e 90 d2 3d f2 77 5b 3e c9 32 24 3e
       0.1388916 0.10281466 0.21432474 0.16034998
000270 f8 b3 10 3e 93 eb 22 3e 91 ff 22 3e af c5 34 3e
       0.14131153 0.15910177 0.15917803 0.17653535
000280 62 65 c7 3d a7 56 17 3e 23 dc a2 3d 7f 6c 8a 3d
       0.09736134 0.14779149 0.07952144 0.06758975
000290 04 2e b3 3d 52 15 45 3e 5e ac c1 3d 88 8a fe 3d
       0.08749011 0.19246414 0.094567046 0.124287665
0002a0 25 76 10 3e 50 e4 f6 3d 62 56 46 3e 09 0b 0a 3e
       0.14107569 0.12055266 0.1936889 0.13480772
0002b0 97 a5 98 3d e8 75 f7 3d b5 6c 26 3e a7 17 84 3d
       0.07453459 0.12083036 0.16252406 0.06449824
0002c0 27 1a 28 3e ef e7 03 3e 47 91 d9 3d a3 91 92 3d
       0.16416226 0.12881444 0.106234126 0.07156684
0002d0 ee 48 54 3e 3d 38 82 3d 69 99 a8 3d 07 e3 91 3d
       0.20730945 0.06358383 0.08232386 0.0712338
0002e0 2c bd c0 3d 41 34 96 3d f7 c2 a3 3d 22 67 d7 3d
       0.09411082 0.073341854 0.07996171 0.10517718
0002f0 09 59 99 3d c1 1b 9a 3d f7 b2 e5 3d 81 ae 3e 3e
       0.07487685 0.07524825 0.112157755 0.18621255

mobilenetv20_features_linearbottleneck4_batchnorm0_beta f4 [192]
000000 31 3d 55 bc 5c bb 8b 3d 49 85 8c 3b 07 1a 5c 3e
       -0.013015077 0.06822845 0.0042883498 0.21494304
000010 f9 1f 4c bd 5a b9 d2 3c a6 a2 b9 3e f5 4b 8b 3e
       -0.04983518 0.025723148 0.36256903 0.27206388
000020 13 22 8d 3e 37 ea 78 3e a3 a4 0e 3e 7b 4c 1d 3d
       0.2756506 0.24308096 0.13929991 0.038403016
000030 da 86 ff 3d 19 73 0f 3e d2 41 72 3d b8 c7 72 bd
       0.12476893 0.1400875 0.059144802 -0.059272498
000040 2f 32 eb 3d 31 4e 4d bd e9 e9 e3 3d 76 e1 b3 3d
       0.11484181 -0.050123397 0.11128599 0.08783238
000050 ba c3 5d 3e 0f 10 d3 3c 9e 75 f6 bd 43 6b 8b 3d
       0.21656695 0.025764493 -0.120341524 0.06807568
000060 ff eb aa 3e af c5 05 3e 99 b7 f5 3d e9 ca 49 3e
       0.33383176 0.13063692 0.11997909 0.1970631
000070 7f f2 3b 3d b0 53 bf 3d 29 2c d8 3d e1 91 64 3e
       0.04588556 0.09342134 0.10555298 0.22321273
000080 00 38 8b 3e 39 c0 f5 3d 88 bf 84 3b e9 df 54 3e
       0.27191162 0.11999554 0.0040511526 0.2078854
000090 3a 45 b5 3d 09 36 01 be c8 5e 37 3d 2a e4 2d 3c
       0.088510945 -0.12618269 0.044768125 0.010613481
0000a0 80 04 29 3e 3f ec 39 3e 5a ed 54 3e c9 62 32 3d
       0.16505623 0.18156527 0.20793667 0.04355124
0000b0 e1 07 47 3e 1a 82 49 3c 7f 40 db 3d c4 bd c1 bb
       0.194366 0.012299085 0.10705661 -0.0059125144
0000c0 17 3e 97 3e f9 c4 5a 3e 53 66 84 3e ac 82 ac 3e
       0.29539558 0.21364202 0.25859317 0.33693445
0000d0 67 28 4b 3e f9 c4 58 3e 2f 7c bd 3c f8 be f7 bb
       0.19839631 0.21168889 0.023130504 -0.007560607
0000e0 79 a7 91 bd d9 38 9e 3e 7a 21 4e 3e 0c b5 0d 3d
       -0.07112021 0.30902746 0.20129958 0.034596488
0000f0 44 f9 15 3e 2b b0 83 bb e5 a8 25 bd f4 d2 1f 3e
       0.14645869 -0.0040188036 -0.040444274 0.15607816
000100 09 d4 68 3e ac 6a 18 be bf 98 54 3e 83 c6 83 3c
       0.22737135 -0.14884442 0.20761393 0.016085869
000110 f0 20 93 3d 09 af 13 3e 6d 82 a8 3d b2 cf f6 bd
       0.07184017 0.1442224 0.08228002 -0.120513335
000120 a8 02 f1 3d 18 87 0d 3e 21 fb 13 3e ee ec d8 3d
       0.11768085 0.13821065 0.14451267 0.10592066
000130 d2 38 61 3e 29 66 25 3d f7 da 98 3d a9 ca 4b 3e
       0.21994331 0.04038063 0.07463639 0.19901527
000140 e2 1b 49 be 61 15 7f 3d e8 b0 67 3e 71 00 4f bc
       -0.19639543 0.062276248 0.22626078 -0.012634383
000150 ea 1a c5 3d 6a 8f 54 bd 08 96 2d 3b 78 ea d7 3d
       0.09624274 -0.051894583 0.002648713 0.10542768
000160 39 82 11 3e a0 82 f0 bd 7e 90 f5 3d a1 ac 36 bb
       0.14209832 -0.11743665 0.1199045 -0.002787389
000170 1f 53 8c be 31 f7 07 be 7c 01 28 bd d1 22 a4 3e
       -0.27407166 -0.1327789 -0.04101704 0.32057813
000180 4e cc 7b 3e a1 09 0f 3e 05 4f 87 3d b9 5b c7 3d
       0.24589655 0.13968517 0.06606869 0.097342916
000190 77 51 07 3e 51 0f 24 3e 19 b9 72 3c dc b2 0e 3e
       0.1321467 0.16021468 0.0148146385 0.13935417
0001a0 61 e1 de 3d 99 33 0e 3e c9 f0 94 3d 49 8a 54 3e
       0.10882831 0.1388687 0.072724886 0.20755877
0001b0 3a 20 d4 3d 63 c6 8b 3d 67 b0 1b 3e f1 ed cd bd
       0.10357709 0.06824949 0.15204011 -0.10055149
0001c0 01 3c c9 bd a4 0a 01 3e 24 47 c3 3d de ad d5 3d
       -0.09825898 0.12601715 0.09535053 0.10433553
0001d0 38 36 2e 3e f6 35 6d 3e d1 bd 2e 3e 1d a5 15 3d
       0.1701287 0.23165116 0.17064597 0.036534417
0001e0 8e 03 3d 3e d1 92 3a 3e a9 ef 38 3e de 16 5e 3c
       0.18458387 0.18220069 0.18060173 0.013555257
0001f0 7b 1c 22 3e df 88 a1 3e 79 56 64 be 77 ab 6a 3e
       0.15831177 0.31549737 -0.22298612 0.22916971
000200 6f 22 a1 3d 29 bf bd bd 9f 46 f0 bc 9c d5 1d 3e
       0.07867896 -0.092649765 -0.02933055 0.15413517
000210 91 f9 e4 3d ef c2 85 3e df 9e 7d be e4 3b 03 3d
       0.111804135 0.26125285 -0.24767636 0.032039538
000220 e0 a3 8e 3e 32 ab cb 3d 88 db 27 3e 57 2c c8 bc
       0.27859402 0.09944762 0.16392338 -0.024435205
000230 26 da b3 3d 93 c3 03 3d c2 54 4a 3e d0 94 c1 3d
       0.08781843 0.032168936 0.19758895 0.09452212
000240 11 a4 0c 3d 33 bd 83 3e 86 79 f8 3d 63 0d 1b be
       0.034336153 0.25730285 0.12132554 -0.15141825
000250 ff db 4a 3e f4 c0 93 3d 17 fb 1b 3e a9 7b d8 3d
       0.19810484 0.07214537 0.15232502 0.10570461
000260 e7 a4 8a 3c 26 b9 c5 3d a0 ed ed bd 10 39 48 bd
       0.016924335 0.09654455 -0.11617589 -0.048882544
000270 01 f2 2a bc 89 16 cb bc 81 17 a9 bc 76 1e dc bd
       -0.010433675 -0.024791019 -0.02064109 -0.107479975
000280 81 57 27 3d 9a 2b ea 3b 06 55 de 3d 01 c1 28 3e
       0.040854935 0.007146311 0.10856061 0.16479875
000290 0d 7e 12 3e e6 b8 d2 bc cf 60 27 3e a2 3f c6 3a
       0.14305897 -0.025722932 0.16345523 0.0015125165
0002a0 5b c2 a3 3e d0 10 86 3d a9 57 b2 3c dd 48 12 3e
       0.3198422 0.065461755 0.021770315 0.14285608
0002b0 4b fe 06 3e 69 88 3b 3e 59 1c e5 bd 7c a5 1d 3e
       0.13182943 0.18313755 -0.111870475 0.15395159
0002c0 31 a8 49 bb 4d f8 05 3d d7 5d 2f 3d f7 73 13 3e
       -0.0030770416 0.0327075 0.042814102 0.14399706
0002d0 be b0 4e bd ff af 18 3e 4b 57 22 3e 2d 10 92 3e
       -0.050461523 0.14910887 0.15853612 0.28527966
0002e0 9b 04 1f 3e e7 b2 df 3d a7 1e 1a 3e 7e 62 51 3d
       0.155291 0.10922795 0.15050755 0.05111932
0002f0 d6 c4 f1 3d 1e 69 60 3e 56 6d 7a 3e 9d 80 9a bd
       0.118051216 0.21915099 0.24455771 -0.07544062

mobilenetv20_features_linearbottleneck4_batchnorm0_running_mean f4 [192]
000000 d0 2d 86 b6 2a a1 83 b7 7e 41 cf 37 56 ab c6 b7
       -3.9988445e-06 -1.5691465e-05 2.470682e-05 -2.3683224e-05
000010 0c 7c ca b7 38 2c 98 b7 47 f3 13 37 b9 cf d2 b7
       -2.413804e-05 -1.8140403e-05 8.818525e-06 -2.513068e-05
000020 4d cc 89 37 a2 10 fb 37 ed 6d fc 37 1e 7c ee 36
       1.6426808e-05 2.9929277e-05 3.009193e-05 7.107402e-06
000030 00 39 aa b8 53 ec f9 b7 07 c5 21 b8 e2 ec e2 37
       -8.116849e-05 -2.979316e-05 -3.8568887e-05 2.7051607e-05
000040 29 d3 83 b7 8b d2 35 38 37 92 1f 38 34 50 ce 38
       -1.5714746e-05 4.3349846e-05 3.8044727e-05 9.8377845e-05
000050 e0 6f ce 36 6e 8b 4c 38 0c 2b 06 39 bd 34 b9 b6
       6.1523024e-06 4.8767244e-05 0.00012795272 -5.519569e-06
000060 0f df ec 37 b1 35 ad b7 c3 43 ec b6 0d eb d1 37
       2.8237262e-05 -2.064821e-05 -7.0412366e-06 2.5024196e-05
000070 56 2b 4b 36 63 49 95 b6 8a 52 68 b7 b9 ba 3b b6
       3.0274582e-06 -4.4490894e-06 -1.3847495e-05 -2.7973858e-06
000080 60 0c 4d b7 e6 d3 3a 38 d2 83 e4 38 0d 51 bb 37
       -1.22218335e-05 4.45432e-05 0.00010896441 2.232988e-05
000090 3b 20 3f b7 4b ad ea 37 f3 78 a9 36 d6 48 97 37
       -1.1391991e-05 2.797567e-05 5.050673e-06 1.803452e-05
0000a0 dd b7 80 b8 56 44 2a b8 06 64 08 38 4f 3c 96 b8
       -6.137763e-05 -4.05948e-05 3.251808e-05 -7.163791e-05
0000b0 88 34 33 b8 fd b4 86 36 d8 09 82 b8 6d 9c 0d b7
       -4.272585e-05 4.014581e-06 -6.2007166e-05 -8.440676e-06
0000c0 cb 85 ea 37 1b 08 3f b8 f1 46 61 38 6a 1e 6a b8
       2.7957276e-05 -4.5545497e-05 5.371025e-05 -5.5818273e-05
0000d0 10 90 ff b7 df 7c a8 37 8a f0 7b 38 cf ac 22 38
       -3.0465453e-05 2.0085308e-05 6.0067083e-05 3.878475e-05
0000e0 f6 f1 0f 37 e6 5b 4a b7 1b d3 a3 38 84 40 4a 38
       8.5798e-06 -1.2061535e-05 7.811767e-05 4.8220638e-05
0000f0 88 c0 8e b8 a9 49 7d 38 db ee bb 36 2f 56 16 b8
       -6.8069494e-05 6.0388502e-05 5.6008407e-06 -3.584305e-05
000100 18 40 3d 38 6c 5b 3b b7 d9 c0 49 34 0f c4 22 38
       4.5120803e-05 -1.1167354e-05 1.8789741e-07 3.8806404e-05
000110 81 9c fe 37 bf cf bb 37 0f 87 73 36 24 32 85 38
       3.0352037e-05 2.2388876e-05 3.6288436e-06 6.3512736e-05
000120 36 f3 40 38 38 3e 56 b8 e7 6e 9e 37 3d 5c da b7
       4.6002875e-05 -5.107952e-05 1.888671e-05 -2.6030577e-05
000130 03 68 07 b6 96 b5 ac 38 6d 96 08 38 9f ae c6 b6
       -2.017711e-06 8.235422e-05 3.256502e-05 -5.9211884e-06
000140 d9 a2 d6 37 01 a9 37 37 46 36 3b b6 7b 12 0d 39
       2.558662e-05 1.0946999e-05 -2.7896763e-06 0.00013453692
000150 0e 50 48 38 22 63 b1 38 a7 31 75 38 f1 75 13 b6
       4.7758273e-05 8.4584826e-05 5.8458794e-05 -2.1973358e-06
000160 f2 58 ac 37 a1 5e 36 38 88 63 82 b8 2a 51 93 b6
       2.0545416e-05 4.348031e-05 -6.217422e-05 -4.39039e-06
000170 cb 6c 15 39 85 b0 2b 38 3a 41 37 36 8b 71 41 37
       0.00014250276 4.0933974e-05 2.7307092e-06 1.1530133e-05
000180 8a 51 b2 37 37 c8 2d b8 9d e5 8c 38 c3 1c 19 38
       2.1257223e-05 -4.143288e-05 6.718489e-05 3.650483e-05
000190 9d cd 0b b7 67 38 a5 b7 30 23 92 37 1c fe 80 38
       -8.332919e-06 -1.9695797e-05 1.7420942e-05 6.150847e-05
0001a0 e6 27 0e 37 99 d4 1d b8 83 60 a7 b6 a2 54 8a 38
       8.473149e-06 -3.7629714e-05 -4.9882233e-06 6.596117e-05
0001b0 e7 2c 59 b5 e3 25 08 38 db 58 92 36 b8 9e a8 37
       -8.090414e-07 3.246021e-05 4.361483e-06 2.010107e-05
0001c0 ad aa 80 37 e4 45 a4 38 4b 66 1c 38 9a 35 32 b8
       1.5338266e-05 7.8331475e-05 3.7288566e-05 -4.2488427e-05
0001d0 4d 7b 50 b7 2a 97 71 b7 f7 e6 52 38 cb c7 18 36
       -1.2426474e-05 -1.4399915e-05 5.0283004e-05 2.276606e-06
0001e0 14 8b 0e b8 fa dc 72 37 c3 06 ef 37 eb 74 80 38
       -3.3984965e-05 1.4475774e-05 2.8494169e-05 6.125293e-05
0001f0 c0 2b 2b 38 22 50 3a b7 94 da 93 b8 e3 46 e6 37
       4.0810322e-05 -1.1105121e-05 -7.0502196e-05 2.7451146e-05
000200 3d 22 67 37 dd c2 40 38 b9 93 1e 38 d2 43 8b 37
       1.3776645e-05 4.5957848e-05 3.7807713e-05 1.6601673e-05
000210 3d a6 0f 38 a1 7b de b7 e2 60 1c b6 d4 de af 38
       3.424868e-05 -2.6522031e-05 -2.3302205e-06 8.386155e-05
000220 51 0a 11 38 4a 57 1a 39 89 d1 0a b8 d0 02 9b b8
       3.4580302e-05 0.00014719102 -3.309691e-05 -7.3915e-05
000230 a8 7e 10 39 3f ea 36 38 e7 00 ff 36 a9 bb 91 38
       0.00013780093 4.361034e-05 7.5996973e-06 6.949093e-05
000240 95 48 25 38 41 91 2a b8 11 2f 83 38 88 e7 cc 38
       3.9406663e-05 -4.0666437e-05 6.2553336e-05 9.770604e-05
000250 c4 49 1c 37 7a 18 42 37 f8 db 70 b8 d2 0a 36 36
       9.3154995e-06 1.1569e-05 -5.742532e-05 2.7126412e-06
000260 89 c0 e8 37 8c b4 47 37 8a a2 ce 38 31 19 4d 38
       2.7746211e-05 1.1903361e-05 9.853121e-05 4.889927e-05
000270 58 dc 80 b8 0b 92 8c 38 8b 9f 83 38 61 28 28 37
       -6.144558e-05 6.702923e-05 6.276284e-05 1.0022982e-05
000280 83 a6 58 38 cc 48 e6 37 9a ae ae 37 47 1c 1b 37
       5.165349e-05 2.7452035e-05 2.0823722e-05 9.245304e-06
000290 30 cd 64 37 fd 13 2d 38 dc a1 bc b7 68 95 61 38
       1.3637633e-05 4.126503e-05 -2.2486718e-05 5.3783326e-05
0002a0 ba 3f 1c 38 91 b1 99 38 71 34 7f b7 f0 f7 20 37
       3.725265e-05 7.328683e-05 -1.5211394e-05 9.594471e-06
0002b0 7e 67 0b b8 b9 2c da b7 cd af ab b6 3d 50 b6 38
       -3.3236567e-05 -2.600845e-05 -5.116663e-06 8.693382e-05
0002c0 67 a7 7e b7 2a 61 a5 b6 71 ae 90 b8 f9 31 6f b5
       -1.5178556e-05 -4.9286946e-06 -6.898947e-05 -8.910716e-07
0002d0 fb c1 7e 37 09 47 20 37 88 40 00 38 de 1e 9f b8
       1.5184744e-05 9.553282e-06 3.0577678e-05 -7.58746e-05
0002e0 f2 09 e2 37 5a 2c ca 37 7e 1e 3c 37 28 d2 91 b7
       2.694593e-05 2.410093e-05 1.1212773e-05 -1.7383209e-05
0002f0 9e 5c 25 38 38 8c a0 b7 f5 01 79 b8 01 4a 0a 38
       3.9425322e-05 -1.913878e-05 -5.936805e-05 3.2970685e-05

mobilenetv20_features_linearbottleneck4_batchnorm0_running_var f4 [192]
000000 5c a2 89 3d 55 ab 21 3d a6 00 6f 3d 46 10 f0 3d
       0.06720421 0.039470036 0.058350228 0.11721854
000010 b7 e8 7d 3d 5b 4c 7e 3d bc 6f d3 3e bf ad 80 3e
       0.061989512 0.062084537 0.41296184 0.25132558
000020 1f 0e 3a 3e 6d 87 97 3e 97 52 5e 3d 36 6f 32 3e
       0.1816945 0.2959551 0.054277983 0.17425236
000030 75 e2 ac 3c c1 6e 43 3d 64 c5 0f 3d c8 38 81 3d
       0.021104077 0.047713045 0.035100356 0.06309658
000040 c4 3b 8f 3c 8f 44 0e 3d bc 76 f8 3c 6c d0 7a 3d
       0.017484553 0.03473335 0.030330054 0.061233923
000050 ce f9 4e 3e 81 a6 02 3d cd c8 6f 3e 40 24 b7 3c
       0.2021248 0.03189707 0.23416443 0.022356153
000060 e1 17 a7 3e 73 2a ad 3c f8 1a 26 3d f3 5f b0 3d
       0.32635406 0.021138405 0.040553063 0.08612051
000070 ba 1e 65 3d dc 81 e4 3d 8a b3 40 3d 17 0f b5 3d
       0.055937506 0.11157581 0.04704622 0.08840769
000080 c6 a5 8b 3e d2 c0 22 3d ae 00 9c 3d 64 b8 b6 3d
       0.27274913 0.03973467 0.07617317 0.089218885
000090 aa 96 aa 3d 35 cc 9d 3d a0 a6 04 3d c2 01 11 3d
       0.08329518 0.07704965 0.03238547 0.035402067
0000a0 7f 37 d2 3d 3e a5 e2 3d 31 41 ac 3d ba 51 39 3d
       0.10264491 0.11066674 0.08410872 0.045243956
0000b0 9c 7b 9f 3d 13 ba 59 3d 42 e1 07 3d ea c5 42 3d
       0.077872485 0.05315597 0.033173807 0.047552027
0000c0 cd 50 8e 3e be bf cf 3d 28 84 9a 3e 20 55 60 3e
       0.2779602 0.10143994 0.30178952 0.21907473
0000d0 cd 32 89 3d 7c 9d 42 3d 79 30 32 3d a3 c4 6f 3e
       0.066991426 0.04751347 0.04350326 0.23414855
0000e0 64 d2 cc 3d 34 4a aa 3e 0a e5 6a 3d 85 58 ab 3d
       0.10001066 0.33259737 0.057347335 0.08366493
0000f0 f5 ba 6c 3d a0 f3 58 3d 2a af 16 3b bc a7 b6 3d
       0.057795484 0.052966714 0.002299259 0.089187115
000100 53 0f 4e 3d c4 f6 04 3e ea 20 c3 3d 31 34 62 3d
       0.050307583 0.12984759 0.09527762 0.055225555
000110 93 c6 ac 3d ef 5f 1c 3e 84 1a d5 3c 6c 1f a2 3d
       0.084363125 0.15270971 0.02601362 0.079161495
000120 42 0b 0a 3d 24 00 2e 3d 1c 28 26 3d 1f 33 30 3d
       0.033702143 0.042480603 0.040565595 0.043017503
000130 d7 76 c1 3d d7 5f b0 3d ba bf 0e 3d 6f 90 99 3d
       0.09446495 0.0861203 0.034850813 0.07498252
000140 51 4a bb 3e 18 13 ae 3d 86 2d 78 3d 76 bf ab 3d
       0.36580136 0.084997356 0.06059029 0.08386128
000150 e3 85 26 3d dc b4 45 3e 7e 07 a4 3d 88 8f e3 3c
       0.040655028 0.19307274 0.080092415 0.027778402
000160 9f fb d7 3c dd a9 01 3e 80 67 97 3d 26 72 b0 3d
       0.0263651 0.12662454 0.07392788 0.08615522
000170 1e 23 0d 3e 1a 74 1c 3e ce 2c ee 3d 9c fb 53 3e
       0.13782927 0.15278664 0.116296396 0.2070145
000180 53 1e 27 3e b3 2a c0 3d e4 98 10 3d 5e c4 57 3d
       0.16320162 0.09383144 0.035302058 0.052677505
000190 c8 b9 98 3d e6 ca 95 3d 74 36 41 3d b6 6d 58 3d
       0.0745731 0.073140904 0.04717107 0.052839004
0001a0 94 3d e1 3d ea 80 ad 3d 89 a0 e4 3d f7 91 33 3e
       0.10998073 0.08471854 0.11163432 0.1753615
0001b0 bc 39 38 3d 60 db ff 3d 4c 46 0c 3d 03 c6 ce 3d
       0.044976935 0.12493014 0.034246728 0.100963615
0001c0 3d 4b f4 3d c0 c3 dc 3d 7c be 88 3d 65 e8 08 3d
       0.11928413 0.10779524 0.06676957 0.033424754
0001d0 ac 95 37 3e 88 e6 c6 3e 34 2f 4c 3d b7 7c 87 3d
       0.17928189 0.38847756 0.049849704 0.06615584
0001e0 46 15 48 3d fb e1 ea 3d a4 54 66 3d 4c f3 e0 3d
       0.048848413 0.114688836 0.056233063 0.10983905
0001f0 80 12 a8 3d 91 0e 55 3e f7 83 ea 3e 6f ab cf 3d
       0.082066536 0.20806338 0.45803806 0.1014012
000200 44 61 d9 3d 5c 7c d9 3d 64 f9 73 3d a0 ff 03 3e
       0.10614255 0.10619423 0.05956401 0.12890482
000210 82 bc 82 3d a8 d7 8b 3e 46 56 ef 3e ba 65 92 3d
       0.06383611 0.2731297 0.4674551 0.07148309
000220 56 c9 d1 3d 5d 60 df 3c 9e 05 e5 3d fa 78 86 3d
       0.1024348 0.02726763 0.11182712 0.06566043
000230 f1 63 21 3e 2e 31 2b 3d c7 9d 51 3e ea f9 2d 3d
       0.15760781 0.04179495 0.20470344 0.042474665
000240 f4 a2 9c 3d 94 a8 28 3e 0c 55 40 3d c5 e1 d9 3e
       0.07648268 0.16470557 0.046956107 0.4255506
000250 29 8d aa 3d bc dd c1 3d cb 1a b5 3d 9a dc 6c 3d
       0.083277054 0.094661206 0.08843001 0.05782757
000260 8d 67 b2 3d 1d d7 29 3d bd c8 80 3e 11 7a 6f 3e
       0.08711157 0.041464914 0.2515315 0.23386408
000270 3d 87 56 3d 9c 8c bf 3d f1 83 c9 3d 9d 31 ed 3d
       0.052375067 0.09352991 0.09839619 0.115817286
000280 c3 b5 dc 3c 15 af e4 3d 2e fd e9 3d 6a ce 58 3d
       0.02694214 0.11166207 0.11425243 0.052931227
000290 22 40 37 3d fc ed 19 3e 49 4b 2e 3d 56 92 86 3d
       0.044738896 0.1503219 0.042552266 0.0657088
0002a0 3f 7d a9 3e dc 73 98 3d bd 36 86 3d 88 67 30 3e
       0.33103368 0.074439734 0.06553409 0.17226994
0002b0 74 ef 49 3d 5b 8c 3e 3d d6 e0 be 3d 2d 89 9f 3c
       0.049300626 0.046520572 0.09320228 0.01947459
0002c0 11 87 f3 3d 6a 5d 2d 3d 2a 2c 9b 3c 06 4a 05 3d
       0.11890996 0.042325415 0.018941958 0.032541297
0002d0 dc 15 4c 3e 52 8c f5 3c 7a e9 72 3d ba 51 13 3e
       0.19930214 0.029974137 0.05930469 0.14386645
0002e0 73 ab 03 3d 9a e4 22 3d 7e 35 c5 3c ad 58 24 3d
       0.03214593 0.039768793 0.024073359 0.04012363
0002f0 2b b4 e9 3c 8c 53 b3 3d 8f e5 71 3e 15 79 14 3e
       0.028528294 0.0875617 0.23622726 0.14499314

mobilenetv20_features_linearbottleneck4_conv1_weight f4 [192, 1, 3, 3]
000000 e7 85 01 bd f6 4a 3b 3e d8 55 26 3d a9 e7 44 be
       -0.03162184 0.18290314 0.04060921 -0.19228996
000010 af 17 01 3d 40 be c1 3d a9 bc d8 bc 48 dd 63 3d
       0.031516727 0.094601154 -0.026457148 0.055630952
000020 f7 31 2b 3b 89 a5 d6 bb 27 92 95 bb c1 2c 62 bc
       0.002612231 -0.006550495 -0.004564542 -0.0138046155
000030 4b bb 0b bb 40 d2 37 be 69 74 a1 3d ad 2f 19 3c
       -0.0021321352 -0.17951298 0.078835316 0.009349746
000040 47 6b c0 3b 20 e8 3a 3e 69 2b 7a 3c 40 de 8d 3b
       0.0058721635 0.18252611 0.015269139 0.004329473
000050 8f f5 81 3c 12 9e db bd f9 d8 84 3e 0f a1 6b 3c
       0.015864162 -0.10723509 0.25946787 0.014381661
000060 c9 2d 50 ba 6c c7 4a bc 21 f1 a5 3c df d1 48 bd
       -0.0007941393 -0.012376647 0.02025658 -0.049028274
000070 c2 0b 62 3d bf 74 0d bd 31 a4 5d 3b d8 9d fb be
       0.055186994 -0.034535166 0.003381979 -0.49143863
000080 89 3d 28 3d f8 14 94 3d 29 a3 e4 3e d0 b7 37 bd
       0.04107431 0.07230562 0.4465573 -0.04485303
000090 9b 74 81 3c 19 7e 4c 3d 1f 40 38 3a 77 a4 86 bd
       0.015802672 0.049924944 0.0007028598 -0.06574338
0000a0 c8 bd 00 3e 09 1b 92 3d 89 d1 10 3c 27 cd dc 3d
       0.12572396 0.07134063 0.00883902 0.10781317
0000b0 42 61 7e 3c 01 a3 95 bc 86 c3 b6 3d 7f 1e 62 3c
       0.015526118 -0.018266203 0.08924012 0.013801216
0000c0 d4 1b 03 be c1 eb b1 3c 67 af 3a 3e 19 f7 6e bd
       -0.12803584 0.021718862 0.18230973 -0.05834112
0000d0 4e 24 67 3d ef df 90 bc b4 50 2a be c9 0d 43 be
       0.056431107 -0.017684905 -0.16632348 -0.19048227
0000e0 df 6d 82 3c 19 ca b8 3c 89 1a e6 be 27 dd c4 bd
       0.015921531 0.022557305 -0.4494212 -0.09612494
0000f0 17 d2 0f 3e 20 bf 28 3f 99 64 42 3d 94 08 49 bd
       0.14044987 0.65916634 0.04745922 -0.049080446
000100 11 ce 39 be 1f d3 c8 3c 98 f2 01 be e8 d6 c3 be
       -0.18145014 0.024514733 -0.12690198 -0.38249898
000110 dc 57 c8 3d d8 54 d2 3d 60 fb a1 3e b4 f9 0a 3e
       0.09782383 0.10270089 0.31637096 0.13571817
000120 47 ff 9d bd 39 48 cb bd 8c 90 2d bd c4 44 4b bd
       -0.07714706 -0.09925885 -0.04237418 -0.049626127
000130 b0 e6 12 be 57 26 2a bd d1 2e a7 bc 4f 2b 58 bd
       -0.14345813 -0.04154047 -0.020408066 -0.052775677
000140 c0 b8 50 bd c1 d2 d3 bd a7 52 23 be 03 88 80 3d
       -0.05095744 -0.103429325 -0.15949498 0.06275942
000150 8d a1 aa bd dc 87 a8 be 71 e6 23 be ca f5 31 3e
       -0.083315946 -0.32916152 -0.16005875 0.17378917
000160 41 e6 11 3f e7 00 40 3d 91 3d 09 3d 96 db 50 3e
       0.56991965 0.04687586 0.03350598 0.20396265
000170 e7 4a 6a 3b a2 17 50 3d cf d8 60 be 47 30 8f bc
       0.0035750212 0.050803788 -0.21957706 -0.017479075
000180 82 3d 6f bc c0 ac b4 bc 09 b8 1e bd f3 e6 90 bc
       -0.014602067 -0.02205503 -0.03874973 -0.01768825
000190 c9 a4 04 bd b8 a8 b3 bd 94 07 91 3d b7 e0 eb 3e
       -0.032383714 -0.08772415 0.070815235 0.4606988
0001a0 ea 5c b1 bd 68 a6 99 bd 9f 2d c2 bd 7f 1a c5 3c
       -0.086603 -0.075024426 -0.09481358 0.024060486
0001b0 86 b5 cf bc 4f 52 6e 3e 93 38 0b bd 8f 82 26 3d
       -0.025355112 0.23273586 -0.0339895 0.040651854
0001c0 2e 9e 72 be 28 75 e3 3c d7 d2 24 bc 3f ec ed 3a
       -0.23693153 0.027765825 -0.010060034 0.0018152072
0001d0 77 cb e2 3a bf bc 0c 3c e7 d7 7d bc f7 2a 0f 3d
       0.0017303069 0.008589922 -0.01549337 0.034953084
0001e0 69 29 d3 3d 23 e7 9b be 98 1f fe 3d 08 50 c7 bb
       0.10310633 -0.3044978 0.1240837 -0.0060825385
0001f0 af b9 0d 3c 3f 73 55 3b 51 6d d1 3a 11 13 19 3d
       0.008650227 0.0032569913 0.0015978013 0.0373717
000200 c8 38 c0 bd de 60 41 3d c5 4d 86 3c 97 8a 13 be
       -0.0938583 0.04721152 0.016394505 -0.14408337
000210 92 94 ae 3c 12 53 f4 bd e1 bc 2f 3e 17 ef 55 bc
       0.021311078 -0.11929907 0.17161895 -0.013057492
000220 95 16 15 3d 9f e5 1d bd fc 5a 0c 3d a1 77 05 3d
       0.03639849 -0.038549062 0.034266457 0.03258479
000230 01 5c 73 3c b7 55 61 3b 69 8e 6c 3d c7 e7 47 bd
       0.014853478 0.0034383365 0.057753 -0.048805024
000240 e5 0d 87 bd 26 9d d1 bc b6 75 ee bc f4 1a 02 bd
       -0.06594447 -0.02558763 -0.029108863 -0.031763986
000250 2f 71 f2 3c 21 1e ea 3d d9 f0 c6 3b 8c 6f 2a 3e
       0.029594986 0.11431528 0.0060711917 0.16644114
000260 45 b1 12 3c 31 c1 00 3a 10 0b ae 3c 57 ad cc bb
       0.008953397 0.00049116 0.02124551 -0.0062462497
000270 a4 de a1 3b 11 f1 f9 3d cf f8 3b 3d 81 df 76 bc
       0.004939871 0.12204183 0.04589158 -0.015067936
000280 e5 5c 19 3d 57 4f aa bc 6a 1a c9 3c 49 5c 46 3d
       0.037442107 -0.020789785 0.024548728 0.048427854
000290 99 cd 9d 3c 97 b5 0a be ab b3 04 3e 76 8a 57 bd
       0.019263076 -0.13545834 0.12959163 -0.05262228
0002a0 76 28 35 bd 5f bd 23 be 37 87 0e bc 87 3e 1d 3d
       -0.04422804 -0.15990208 -0.00869923 0.03838971
0002b0 09 e8 78 3e c7 ed 32 3d 32 55 e2 bc c2 54 45 be
       0.24307264 0.043683793 -0.027628515 -0.19270614
0002c0 8f 3e 66 3d ae 30 32 bc 83 3a 06 be 24 a3 49 bc
       0.056212004 -0.010875864 -0.13108258 -0.012306962
0002d0 da c0 2d bc 80 96 c6 3c b4 e1 1a bc ec bd ab be
       -0.010605061 0.024241686 -0.009453226 -0.33543336
0002e0 c7 19 42 bd 9c 0b cb 3e 9e 53 7b bd 82 ee d0 3b
       -0.047387864 0.39657295 -0.06135904 0.0063760886
0002f0 81 e3 41 3d b7 6f 0a 36 ff a6 d5 3c ae 1c 2f 3c
       0.047336105 2.062863e-06 0.026080607 0.01068799
000300 7e d6 5f bd 66 28 57 3e 4e 19 eb bb 20 25 94 3c
       -0.054647915 0.21011505 -0.0071746474 0.018084109
000310 ad 4e a0 3d 89 49 92 3b 48 d2 10 bc c7 3b 87 3d
       0.07827506 0.0044643325 -0.008839197 0.066031985
000320 6e 05 7e bc 08 9a 8e 3c ea 17 58 3e a6 0a 5d 3d
       -0.015504224 0.017407432 0.21102872 0.053965233
000330 0a 29 f4 39 cf 45 72 3d c1 bd 3d 3c 11 fa a1 bc
       0.00046569883 0.059148606 0.011580885 -0.019772561
000340 19 2f 19 3e 32 ed f1 3d 91 ce f5 bb 74 73 21 be
       0.14959373 0.118128195 -0.0075014313 -0.15766698
000350 b1 66 f4 bc 37 68 de bb a2 33 f7 bc b2 42 c6 bb
       -0.029834123 -0.0067873257 -0.030175988 -0.006050431
000360 57 58 f0 bd 52 eb 73 3c b2 e7 c4 3d 7d d7 0a bd
       -0.117355995 0.014887648 0.09614505 -0.033896912
000370 92 6e e1 be f3 b9 05 3f 10 8f 08 bd 00 dd 9c bd
       -0.4402967 0.5223686 -0.03333956 -0.0765934
000380 65 e4 9c 3d d4 d3 8c 3a 3f e5 0e bd b8 3a f5 bd
       0.0766075 0.0010744282 -0.034886595 -0.1197409
000390 ee dc 55 bd 16 b4 b2 bd af 2d 26 3e 35 ae 03 bc
       -0.052212648 -0.08725755 0.16228364 -0.00803714
0003a0 4a 5c 4f 3d 9c 96 92 bd 79 ee 7c 3d eb e0 1f bc
       0.050625123 -0.07157633 0.061750863 -0.0097582145
0003b0 af 84 fa bc f2 4a 4f bd 80 a5 8f 3e d4 e8 24 be
       -0.030580847 -0.050608583 0.28055954 -0.16104442
0003c0 50 a2 00 3d 7c f6 36 be 5f 24 f3 3a c1 cc 23 bd
       0.031404793 -0.17867464 0.0018550268 -0.03999019
0003d0 37 00 a0 3d 97 a3 2f bd e8 e6 9b 3e 5b 2a 98 be
       0.07812541 -0.04288062 0.30449605 -0.29719815
0003e0 34 be 87 3a 9c b9 3f 3d ad eb 81 bd 19 28 1b 3c
       0.0010356368 0.04680787 -0.0634378 0.009470009
0003f0 87 8b bd bc c1 20 cf bd 7f b1 2d bd b4 79 98 bd
       -0.02313782 -0.10113669 -0.0424056 -0.07445088

mobilenetv20_features_linearbottleneck4_batchnorm1_gamma f4 [192]
000000 f2 f9 f6 3d f4 db 3f 3e 61 dc 22 3e 56 35 56 3e
       0.12059392 0.18736249 0.1590438 0.20918784
000010 fb 8e 14 3e 15 cb 20 3e c4 ca c7 3e f5 d1 81 3e
       0.14507668 0.1570247 0.39021885 0.25355497
000020 11 34 c8 3e 63 09 86 3e b9 55 42 3e 7f c8 17 3e
       0.39102224 0.26179036 0.18978013 0.14822577
000030 ee 2b 57 3e e7 25 4a 3e 80 90 c2 3d 39 2e 24 3e
       0.21012852 0.19741021 0.095002174 0.16033258
000040 10 ea 04 3e 1c ec b0 3d 08 48 e6 3d 84 15 2c 3e
       0.12979913 0.08638784 0.112442076 0.16805083
000050 a9 62 79 3e a2 7d 54 3e 89 06 16 3e 6c 08 1d 3e
       0.24354042 0.2075105 0.1465093 0.15335244
000060 db ba 89 3e 91 7c f6 3d 01 90 b9 3d 8e 1a 6d 3e
       0.26900372 0.12035478 0.0906067 0.23154661
000070 77 75 ec 3d 21 9c 49 3e d6 bb f0 3d 0f 94 f3 3d
       0.11545842 0.19688465 0.11754577 0.11893474
000080 f4 d4 a2 3e 01 9e 4f 3e d9 a5 2d 3e 08 6e 61 3e
       0.31803095 0.20275117 0.16957797 0.2201463
000090 a6 fa df 3d 3b 5e 9b 3d 57 b8 00 3e 58 95 c4 3d
       0.10936479 0.075863324 0.1257032 0.095987976
0000a0 e1 8a 71 3e 66 f0 45 3e ba 01 6b 3e 48 39 d6 3d
       0.23588134 0.19329986 0.22949877 0.10460144
0000b0 6a a6 5b 3e 31 66 98 3d 2e 1c f3 3d fd 18 00 3e
       0.214502 0.074413665 0.11870609 0.12509532
0000c0 44 a7 9b 3e e2 b3 72 3e 87 79 99 3e df 46 b1 3e
       0.3040105 0.23701432 0.2997553 0.34624383
0000d0 21 50 2e 3e 87 3c 29 3e af 3a 02 3e 99 1c 63 3e
       0.17022754 0.16526996 0.12717699 0.22178878
0000e0 35 16 8b 3d 84 49 93 3e 76 4d 69 3e 44 61 33 3e
       0.06791345 0.28767025 0.22783455 0.17517573
0000f0 f1 68 31 3e 49 6a 46 3e 77 c0 81 3c 11 a6 19 3e
       0.17325188 0.19376482 0.015838845 0.15004756
000100 50 9c 53 3e 61 b2 e9 3d e5 73 a0 3e b1 cc 20 3e
       0.20665097 0.11410976 0.3133842 0.15703084
000110 c4 4a 3c 3e 0e 79 68 3e 96 84 4a 3e b6 36 fd 3d
       0.18387896 0.22702429 0.1977714 0.12363951
000120 8d 57 16 3e 38 06 23 3e 46 e3 f6 3d 69 78 39 3e
       0.14681835 0.15920341 0.12055068 0.18112339
000130 8d 67 8c 3e 61 a1 4d 3e c9 39 4e 3e 8f 58 83 3e
       0.27422753 0.20081092 0.20139231 0.25653502
000140 0e 6d e9 3d 61 8c 0a 3e e9 70 6a 3e 1b 55 0a 3e
       0.11397754 0.13530113 0.22894634 0.13509028
000150 a9 56 01 3e b9 85 11 3e 5b d1 0c 3e 19 f5 36 3e
       0.12630714 0.14211167 0.13751738 0.17866935
000160 b1 b5 3f 3e 21 a8 00 3e 84 ae 1d 3e 4f 47 e4 3d
       0.18721654 0.12564136 0.15398604 0.111464135
000170 07 b6 36 3e f7 fa 07 3e cf f4 a5 3d ca 92 2e 3e
       0.17842875 0.13279329 0.08103334 0.17048183
000180 c7 d1 9f 3e 89 ef 55 3e c9 e0 4a 3e f9 ba eb 3d
       0.31214735 0.20892157 0.19812311 0.115102716
000190 c8 17 14 3e ea 37 2b 3e f1 0e 39 3e de 3a 4b 3e
       0.14462197 0.16720548 0.18072106 0.19846675
0001a0 b9 a2 05 3e 49 b1 40 3e 2d 63 02 3e 19 54 84 3e
       0.13050355 0.18817629 0.12733145 0.2584541
0001b0 ef 73 46 3e 3e 62 c9 3d 59 b5 3d 3e 82 7d df 3d
       0.19380163 0.09833191 0.1852621 0.109126106
0001c0 b0 19 1c 3e d0 1b 49 3e c9 39 21 3e 59 6a 25 3e
       0.15244174 0.19639516 0.157447 0.1615385
0001d0 28 64 52 3e ec 0d 86 3e 22 a9 f1 3d d7 1b 9d 3d
       0.20546019 0.26182497 0.11799838 0.07671326
0001e0 c2 75 6c 3e 80 a7 1c 3e 2f 6d 70 3e c1 ad 57 3e
       0.23091796 0.15298271 0.2347915 0.21062376
0001f0 9a 35 35 3e ca 9e c5 3e a1 1d 07 3e 35 07 89 3e
       0.17696229 0.3859771 0.13194896 0.2676331
000200 b1 21 26 3e c1 59 dd 3d 19 30 30 3e 03 d0 8a 3e
       0.1622379 0.10808135 0.17205848 0.27111825
000210 dc a6 34 3e ef 67 95 3e bf 82 41 3e 92 ee d6 3d
       0.17641777 0.29180858 0.18897532 0.104947224
000220 11 63 26 3e ce c8 5b 3e e8 c2 58 3e c4 01 22 3e
       0.16248728 0.2146332 0.21168101 0.15820986
000230 fd e3 21 3e cf e3 05 3e 39 29 63 3e ac 0d 09 3e
       0.15809627 0.13075183 0.22183694 0.13384122
000240 59 c7 5f 3e 54 6a bc 3e bf 71 41 3e b7 da 0b 3e
       0.21853389 0.36799872 0.18891047 0.13657652
000250 af 6f 68 3e 34 a8 09 3e 10 35 3e 3e 42 13 48 3e
       0.22698854 0.1344307 0.18574929 0.19538596
000260 09 c2 e4 3d 28 ce 21 3e ee 81 34 3e 7b 77 11 3e
       0.11169822 0.15801299 0.17627689 0.14205734
000270 e4 77 09 3e 4d 31 16 3e b7 e0 a7 3d ce c4 d0 3d
       0.13424641 0.14667244 0.08197158 0.101937875
000280 c1 29 f7 3d c4 a4 18 3e 52 bc 66 3e b1 37 7e 3e
       0.12068511 0.14906603 0.22532776 0.24825932
000290 e1 f7 2a 3e da b6 f2 3d 79 87 39 3e d7 29 92 3d
       0.16696121 0.118512824 0.18118085 0.071368866
0002a0 07 0b b5 3e cb a4 04 3e c1 4b b0 3e 1f ad 12 3e
       0.35359976 0.12953489 0.34432796 0.14323853
0002b0 cc 39 44 3e 7f a5 1e 3e 97 7b ca 3d d4 cb 42 3e
       0.19162673 0.15492819 0.09886854 0.19023067
0002c0 d2 4d 4f 3e 37 d1 c6 3d 31 9f 39 3e 36 1f 60 3e
       0.2024453 0.09707873 0.18127133 0.21886906
0002d0 6a 47 e7 3d da 67 42 3e 57 21 71 3e ef 62 0d 3e
       0.11292918 0.18984929 0.23547874 0.13807271
0002e0 69 0f 2a 3e 41 75 32 3e a7 66 48 3e 14 81 4c 3e
       0.16607441 0.17427541 0.19570409 0.19971114
0002f0 f7 08 21 3e 8f 9c 76 3e da 82 59 3e 89 80 cd 3d
       0.15726076 0.2408316 0.21241322 0.10034282

mobilenetv20_features_linearbottleneck4_batchnorm1_beta f4 [192]
000000 cd 19 24 be 08 5c aa bd 08 e9 5e bc d4 66 87 3c
       -0.16025467 -0.08318335 -0.013605364 0.016528524
000010 e1 b7 29 bd 0f a1 b0 bd 9c 67 ab 3d 29 6e a5 3d
       -0.041435126 -0.086244695 0.08369371 0.08077652
000020 6f ff b8 be 2a e2 b0 3d 49 18 92 bd 81 d1 2e 3e
       -0.3613238 0.08636887 -0.07133538 0.17072107
000030 6a be c9 bb d9 da 3c 3d b7 da 86 3e 79 69 80 3e
       -0.0061567323 0.046107147 0.2633874 0.2508047
000040 94 74 b1 3d ba 48 f0 3c e0 81 0d 3e c3 aa 86 bd
       0.08664814 0.029331554 0.13819075 -0.06575539
000050 90 d6 19 ba 74 d6 c2 bc ec a5 11 bd 60 53 b4 bc
       -0.0005868459 -0.0237839 -0.035558626 -0.022012413
000060 09 54 98 3d 47 f4 96 3d e7 06 9e 3e 6e df c4 bb
       0.074379034 0.07370811 0.3086464 -0.00600808
000070 a8 b6 1c 3e f9 9a 22 bc 39 fc 48 3e ad 40 9d 3d
       0.15304053 -0.009924644 0.19627465 0.076783516
000080 97 51 dc 3d d0 bd cb bc b5 da 23 bd 53 25 9f bd
       0.107577495 -0.024870783 -0.040003497 -0.07770791
000090 2c a7 81 3e 1b 52 24 3e aa 15 64 3d 3f 3a 1f 3e
       0.25322855 0.16046946 0.055684723 0.15549563
0000a0 d1 76 1d bd c8 20 02 bd 89 a1 d3 bc 3f cb 47 3d
       -0.03844339 -0.031769544 -0.025833862 0.048777815
0000b0 61 2b 7a bd 22 ae dc 3d 42 32 e0 3d e9 0f 79 3d
       -0.061076526 0.10775401 0.10947086 0.06080619
0000c0 8f f7 bf 3c a7 b5 fd bd 29 7d 7e 3d 9c 28 b0 3d
       0.023433475 -0.12388163 0.06213108 0.086014956
0000d0 d0 89 70 3c 71 1a 26 bd f0 73 37 3e 45 3e a2 bd
       0.014681295 -0.04055256 0.1791532 -0.07922033
0000e0 5b 48 87 3e 38 e4 51 3d 32 78 7c bc 07 a0 87 3d
       0.2642239 0.051243037 -0.015409516 0.0662232
0000f0 75 8e 93 bc 14 ac 36 bd 6d ad 94 3c 4f 04 37 3d
       -0.018012265 -0.0445977 0.018149102 0.044681843
000100 aa 7d e3 3a 88 e9 8d 3d c2 37 d4 bd ff 6a 9c bb
       0.0017356176 0.06929308 -0.103621975 -0.004773497
000110 a7 f6 c4 bd 51 4b 1e bd 9c 00 40 3b 40 35 45 3d
       -0.09617358 -0.038646046 0.0029297238 0.048146486
000120 e8 5a 80 bc 35 c1 8c 3b 2b 7e 0f 3e a4 7b 86 3d
       -0.015668347 0.004295493 0.14012973 0.06566551
000130 e9 a1 3b bd c9 cc 11 bd 7f 07 db 3c b8 a7 1f be
       -0.045808706 -0.03559569 0.026736973 -0.15591323
000140 d0 0f 94 3d aa 9c 4b 3c 90 4f 60 bd e9 a4 73 3d
       0.072295785 0.012427488 -0.054763377 0.059483442
000150 49 67 1d bc 5f c9 bb 3c 80 64 47 3d ae b2 dc 3b
       -0.009607145 0.02292317 0.04867983 0.0067351675
000160 15 f5 10 bd af d9 11 3c 9f e3 a9 3c de 09 ca 3d
       -0.03538998 0.0089019975 0.020738421 0.09865163
000170 87 cd 49 be 08 5e 82 bd e0 0a 93 3e 3f db 1f 3e
       -0.19707309 -0.06365591 0.28719234 0.1561098
000180 77 de 66 be 84 11 c3 3d f7 a7 04 bd 0b 57 01 3e
       -0.22545801 0.09524825 -0.032386746 0.1263086
000190 c8 3e 1c 3e 07 5f 30 bc 17 e0 ab bc 7e 84 d2 bd
       0.15258324 -0.010764844 -0.020980878 -0.10279177
0001a0 2b 59 80 3e 87 3b 3a bc 5f 91 dd 3d 44 17 06 bc
       0.2506803 -0.0113667315 0.10818743 -0.008184258
0001b0 4f d7 8e bd a1 bf 7b 3e 76 75 2d be f0 14 c2 bb
       -0.069746606 0.2458482 -0.16939339 -0.005922906
0001c0 f1 c2 09 3e 54 36 32 bd f0 b5 82 3d 77 05 5c 3d
       0.1345327 -0.043508843 0.06382358 0.05371615
0001d0 c9 10 81 3d 9f 83 25 3e b1 7b 03 3e c7 33 97 3d
       0.0630203 0.1616349 0.12840153 0.073829226
0001e0 37 dc f9 bd 7e 3c 3f 3e 21 de 99 bd 82 8a d0 3c
       -0.12200206 0.1867542 -0.07513071 0.02545667
0001f0 78 2c e2 bb d9 6d c9 3c e7 ce b8 3c 97 29 7e bd
       -0.0069022737 0.024588512 0.022559596 -0.062051382
000200 a1 fc f4 bc c7 c6 58 bd 9f ce 51 bd 37 fa 2b bc
       -0.02990562 -0.052923944 -0.05122244 -0.010496668
000210 b4 46 2f 39 97 c4 10 3b 09 85 97 be 09 96 51 3e
       0.0001671564 0.0022089833 -0.29593685 0.2046739
000220 d0 b0 d5 3d 41 7f 2d bd b7 a3 bf bc 8f 59 a7 bc
       0.10434115 -0.042357687 -0.023393495 -0.020428447
000230 27 71 97 3d 5d e5 a1 3c a9 91 89 3d 68 f6 5d bb
       0.07394629 0.01976269 0.067172356 -0.0033868793
000240 71 16 e2 bd df 92 ad 3c 5f e0 bf 3d a8 6b 72 3b
       -0.110394366 0.021188198 0.09368967 0.0036990438
000250 af bc 82 3c 94 af 87 3d c1 03 53 bc 80 b3 3d bd
       0.015959112 0.06625286 -0.012879313 -0.046313763
000260 4f be b7 3d 98 38 b1 3c 3b 54 27 bd dc 94 04 3d
       0.08971845 0.021633431 -0.040851813 0.032368526
000270 cf d5 10 3e 19 35 84 3c 7f 5a 8a 3d a1 ca 1c 3c
       0.14144062 0.0161386 0.06755542 0.009569795
000280 8f 2e 90 bc b1 e0 ac bd cc 27 ad 3c 8c fa 21 be
       -0.017600326 -0.08441294 0.02113714 -0.15818232
000290 28 e0 04 3d 45 c0 93 3d e9 0e 36 bc f0 29 d2 3d
       0.032440335 0.07214407 -0.011111953 0.10261905
0002a0 d0 77 d7 3d 8a 0a bc 3b 37 ef 56 be c7 fe f5 3d
       0.10520899 0.005738561 -0.2098969 0.120114855
0002b0 57 32 fe 3a ac 20 85 3c 50 ae 9c 3d e1 8b 50 bc
       0.0019393665 0.01625093 0.07650435 -0.012728662
0002c0 7b a9 89 3d 47 5c 49 3e 9d 35 06 bd d7 9c 6f bd
       0.06721779 0.19664107 -0.032765973 -0.058499184
0002d0 5c f9 9a 3e c9 59 a5 bc 07 16 90 bd 32 ec 53 3e
       0.3026837 -0.020184414 -0.070354514 0.2069557
0002e0 d7 e2 00 3c 47 e5 72 bd 2e 63 68 ba c7 8d 44 bd
       0.007866583 -0.059300687 -0.00088648766 -0.047986772
0002f0 d6 2a d6 38 c7 4b d8 bd 41 f7 a8 3d 4f 01 1f 3e
       0.00010212294 -0.105613284 0.08250285 0.15527843
