apps/onnx/models/mobilenetv2_1.onnx (onnx, 102870 bytes, 30 tensors)

mobilenetv20_features_linearbottleneck2_conv0_weight f4 [144, 24, 1, 1]
0	0xbd408b9f	-0.047008153
1	0xbe7659be	-0.24057671
2	0xbdaf8466	-0.08570175
3	0x3df484a2	0.1193936
4	0xbccc4810	-0.024936706
5	0x3e05db47	0.13071929
6	0xbde68918	-0.11256617
7	0xbbecdea1	-0.007228688
8	0x3d97a279	0.07404036
9	0xbc6fd416	-0.014637968
10	0x3eadecec	0.3396982
11	0xbc76faea	-0.015074471
12	0x3deee03e	0.116638646
13	0xbbb1cd7f	-0.0054261084
14	0xbcc399e0	-0.023877084
15	0xbe229328	-0.15876448
16	0xbe6aa08a	-0.22912803
17	0x3e81a561	0.25321487
18	0xbd9e4801	-0.077285774
19	0x3d20a3a7	0.03921857
20	0xbe621647	-0.2207881
21	0x3e155fe7	0.14587365
22	0xbe880ee1	-0.26573852
23	0xbe2ee19e	-0.17078254
24	0xbd9613bd	-0.073279835
25	0xbd2a56c0	-0.041586637
26	0xbd994691	-0.074841626
27	0xbbe5b302	-0.007009865
28	0xbdad217c	-0.08453652
29	0xbe432442	-0.190568
30	0xbdf9931e	-0.121862635
31	0x3c0b9648	0.008519717
32	0xbd4d8849	-0.0501788
33	0xbca65087	-0.02030207
34	0xbd013320	-0.031542897
35	0xbc979681	-0.018504383
36	0xbd865f94	-0.06561199
37	0xbc7d9c37	-0.015479139
38	0x3d2d79e2	0.042352565
39	0xbcd6b097	-0.026207251
40	0x3de83fbe	0.11340283
41	0xbd6f8ae1	-0.058482055
42	0xbc430281	-0.011902452
43	0xbd4108ca	-0.047127523
44	0xbe1eec07	-0.15519725
45	0x3b30574e	0.0026907506
46	0xbdbf708f	-0.09347641
47	0x3cb5bbea	0.022184331
48	0x3d998c57	0.07497471
49	0xbd7da691	-0.06192643
50	0xbddf8dd7	-0.10915726
51	0x3d1c9399	0.038226698
52	0xbc962739	-0.01832925
53	0x3d7b647e	0.061375134
54	0xbe1b60c1	-0.15173627
55	0x3e2037f9	0.15646352
56	0x3e8c7441	0.27432445
57	0xbd43c069	-0.04779092
58	0xbe1624b5	-0.1466244
59	0x3dc94b51	0.098288186
60	0xbd6c105a	-0.05763278
61	0xbcec6dba	-0.028860915
62	0xbe0d3f97	-0.13793789
63	0x3bb600c1	0.005554289
64	0xbdbe7e7f	-0.09301471
65	0xbe582cf1	-0.21110894
66	0xbdb6cf1c	-0.08926222
67	0xbd5e5619	-0.054281328
68	0xbe0441ed	-0.12915774
69	0x3d4628a1	0.04837859
70	0xbd879567	-0.06620293
71	0x3e01176f	0.12606595
72	0x3d390a91	0.045176093
73	0xbd98dc37	-0.07463878
74	0xbc63da57	-0.013907037
75	0xbd9ca6af	-0.0764898
76	0xbd39a4d7	-0.04532322
77	0x3d8e94d9	0.06961984
78	0x3da3ff2f	0.08007657
79	0x3e89b0c7	0.26892683
80	0xbc16d5e0	-0.009206265
81	0x3d9828f9	0.0742969
82	0x3db0637f	0.086127274
83	0x3de0ab0f	0.10970127
84	0x3d70af87	0.058761146
85	0x3d4a8230	0.049440563
86	0xbd9332af	-0.071874015
87	0xbcbce9df	-0.023060737
88	0x3d648489	0.055790458
89	0x3bd7a506	0.0065809516
90	0xbdec66b2	-0.11543025
91	0x3d7553ae	0.059894256
92	0xbd7977d2	-0.060905285
93	0xbe59e6c9	-0.21279444
94	0x3d231e1b	0.039823633
95	0xbde266e8	-0.11054784
96	0x3cd7e827	0.026355816
97	0x3ca54907	0.020176424
98	0xbc6964be	-0.01424521
99	0x3c9cc7a7	0.01913817
100	0xbb2c1899	-0.0026259779
101	0xbb1d2077	-0.002397565
102	0x3d330327	0.04370418
103	0xbd3d52c8	-0.046221524
104	0x3c31a919	0.010843539
105	0x3c886635	0.016650299
106	0xbc8063f5	-0.015672663
107	0xbd09fba1	-0.033687238
108	0xbda92d19	-0.08260555
109	0x3cd39df7	0.02583216
110	0x3af2e316	0.0018530812
111	0xbcc4c6ae	-0.02402052
112	0xbcdbc6c2	-0.026828174
113	0xbccb6007	-0.024826063
114	0xbbf5af91	-0.007497736
115	0xbcfadfae	-0.030624237
116	0xbd029e91	-0.031889502
117	0xbd4bdf7f	-0.04977369
118	0xbda1c5b0	-0.07899034
119	0xbbdb4b57	-0.006692331
120	0x3cc9d5e7	0.02463813
121	0xbdfcd731	-0.12345732
122	0xbdb907c6	-0.09034686
123	0xbde2e72f	-0.11079251
124	0x3d84aea9	0.06478626
125	0xbdce0471	-0.10059441
126	0x3e3b3192	0.18280628
127	0xbe92f2d9	-0.28700903
128	0x3d74b9ba	0.059747435
129	0xbe119cf1	-0.14220025
130	0x3ddbcb12	0.10732092
131	0xbcb6f734	-0.022334673
132	0x3d2b2e41	0.041792158
133	0xbc6093e2	-0.013707133
134	0xbd98de7d	-0.07464311
135	0x3d2c4878	0.0420613
136	0x3dbf2b42	0.09334423
137	0x3cbc9782	0.023021463
138	0xbe58bdb0	-0.2116611
139	0x3d8b2069	0.06793291
140	0x3e554e31	0.20830609
141	0xbe091be1	-0.13389541
142	0xbcec2ff6	-0.028831463
143	0x3d2193d0	0.039447606
144	0x3ddf02b6	0.10889189
145	0xbd375418	-0.044757932
146	0x3dc5f44c	0.096657366
147	0x3d565cd1	0.05233461
148	0x3d1f2aa8	0.03885904
149	0x3e058e59	0.13042583
150	0xbd802997	-0.06257933
151	0x3e9b7fcb	0.30370936
152	0x3e327777	0.17428385
153	0x3d212add	0.03934752
154	0x3c861894	0.016369142
155	0x3e3c41ef	0.18384527
156	0xbd80e24f	-0.06293165
157	0xbd133e91	-0.03594834
158	0x3bb5a848	0.0055437423
159	0x3bdaa49f	0.0066724564
160	0x3dfe8ba8	0.12428981
161	0xbe1334af	-0.14375566
162	0xbdf0d2b6	-0.1175894
163	0xbe57c3e8	-0.21070826
164	0x3da8891d	0.08229277
165	0x3e462d5f	0.19353245
166	0xbe71da07	-0.23618327
167	0x3e1eb0b1	0.1549709
168	0xbccd5629	-0.025065498
169	0xbd08d9a4	-0.033410683
170	0x3d2481c4	0.040162817
171	0xbd871f00	-0.0659771
172	0x3ce2f41a	0.027704287
173	0x3d526bf2	0.051372476
174	0xbd098de8	-0.033582598
175	0x3d9a0fb5	0.07522527
176	0x3c115ed1	0.008872704
177	0xbd22475b	-0.03961883
178	0x3dafc207	0.0858193
179	0x3c513cb9	0.012770825
180	0x3c44a8ca	0.012003133
181	0xbd7129b9	-0.05887768
182	0x3cd5b620	0.02608782
183	0xbd1ae108	-0.037812263
184	0xbc9aae58	-0.018881962
185	0x3d4cbd31	0.049985114
186	0x3d0f7309	0.035021815
187	0x3ca731dd	0.020409519
188	0xbd73ea1e	-0.059549443
189	0x3b8fe7a9	0.0043916297
190	0xbdd5bee1	-0.10436798
191	0xbe072c4c	-0.13200492
192	0xbbedf05f	-0.0072613205
193	0x3e810f3f	0.25206944
194	0xbe91261c	-0.28349388
195	0xbd3d1596	-0.046163164
196	0xbde37251	-0.111057885
197	0x3e08c910	0.1335795
198	0xbdc76532	-0.09736098
199	0x3e43fb19	0.19138755
200	0x3edfaaae	0.43684906
201	0xbe3eb954	-0.18625385
202	0xbe6d32be	-0.23163888
203	0x3e19f4c7	0.15034781
204	0x3e8f8411	0.28030446
205	0xbce14b97	-0.027501864
206	0x3d8c81ff	0.06860732
207	0xbe21925d	-0.1577849
208	0xbe3f5117	-0.18683277
209	0x3e039424	0.1284948
210	0xbb6404a8	-0.0034792814
211	0x3db16236	0.086613104
212	0xbc8ad7f0	-0.01694867
213	0x3ded7916	0.11595361
214	0x3e323f82	0.17407039
215	0x3e7f240a	0.24916092
216	0xbdffbc07	-0.12487035
217	0xbe0c52ec	-0.13703507
218	0x3d7ff2d9	0.062487457
219	0xbe750587	-0.2392789
220	0x3dd633af	0.104590766
221	0xbd64bebe	-0.05584597
222	0xbdbdb7ef	-0.09263598
223	0x3e20bfa1	0.156981
224	0x3cb3dd57	0.021956129
225	0xbe47098f	-0.1943724
226	0x3d096107	0.033539798
227	0x3d3bca31	0.04584712
228	0xbdeb8acf	-0.11501085
229	0x3caf0190	0.02136305
230	0xbe43b081	-0.191103
231	0x3da40c91	0.08010209
232	0xbde75829	-0.11296112
233	0xbde1effe	-0.11032103
234	0xbcad1fe6	-0.021133374
235	0x3dc43436	0.09580271
236	0xbddb2066	-0.10699539
237	0x3d4dcea1	0.050245885
238	0xbc57f4a7	-0.013180888
239	0x3c788b49	0.015169927
240	0x3cbb12b6	0.02283607
241	0x3bb4bc9f	0.0055156494
242	0xbb93a8cc	-0.004506206
243	0xbd1b995f	-0.037988063
244	0xbbc99424	-0.006151693
245	0x3c9928cb	0.01869621
246	0x3b86cf84	0.0041140933
247	0xba886487	-0.0010405936
248	0x3c148f99	0.0090674395
249	0xbcac8ba0	-0.021062672
250	0x3cbb0479	0.022829281
251	0xbbcbfad9	-0.0062249717
252	0x3bdcbc91	0.006736346
253	0xbc80db01	-0.01572943
254	0x3c3b0690	0.011415139
255	0xbb613d12	-0.0034368676

mobilenetv20_features_linearbottleneck2_batchnorm0_gamma f4 [144]
0	0x3e25e4c7	0.16200553
1	0x3e197a81	0.14988138
2	0x3dda2e7f	0.106534
3	0x3e1ce33f	0.15321063
4	0x3a69017f	0.00088884676
5	0x3e2578f3	0.1615942
6	0x3e71e106	0.23620996
7	0x3de5ee81	0.11227132
8	0x3e8d324c	0.27577436
9	0x3e0518fb	0.1299781
10	0x3c2c8061	0.010528655
11	0x3d900bc4	0.07033494
12	0x3da3a6e8	0.07990819
13	0x3da8acc7	0.0823608
14	0x3d789a57	0.060694065
15	0x3e47e279	0.19519986
16	0x3d837818	0.064193904
17	0x3e027d23	0.12743048
18	0x3e6486fa	0.22317114
19	0x3de14f16	0.110014126
20	0x3e5b35b7	0.2140721
21	0x3dad15e7	0.08451443
22	0x3dc2613f	0.094912045
23	0x3e7ab1aa	0.24481836
24	0x3e11f330	0.14252925
25	0x3e4b07cf	0.19827197
26	0x3e8773f9	0.26455668
27	0x3e6d4cf1	0.23173882
28	0x3e13101f	0.14361618
29	0x3e60ba5f	0.21946095
30	0x3e13f99f	0.14450692
31	0x3e100a1f	0.14066361
32	0x3e0e5719	0.13900413
33	0x3de0cd12	0.10976614
34	0x3e3882b1	0.18018605
35	0x3dd62c37	0.10457652
36	0x3e1af9df	0.15134381
37	0x3e2a09c1	0.16605283
38	0x3e065b27	0.1312071
39	0x3e3e1d91	0.18565966
40	0x3e78e419	0.24305762
41	0x3b9257bc	0.004466025
42	0x3e4fff31	0.20312192
43	0x3e4ca5bc	0.19985098
44	0x3dcf388e	0.10118209
45	0x3e8fc57b	0.28080353
46	0x3e9334bf	0.2875118
47	0x3e84c819	0.25933912
48	0x3e844834	0.25836337
49	0x3e1bb458	0.15205514
50	0x3e3558e4	0.1770969
51	0x3e67799f	0.22604989
52	0x3e22d209	0.15900435
53	0x3e3a40e1	0.18188812
54	0x3e3f526f	0.1868379
55	0x3e3a8f1f	0.18218659
56	0x3ea2ad2f	0.31772754
57	0x3e53ca76	0.20682701
58	0x3e381f06	0.17980585
59	0x3e06ee19	0.13176765
60	0x3d98b5df	0.07456564
61	0x3df053d7	0.11734741
62	0x3e10359c	0.1408295
63	0x3e00354d	0.12520333
64	0x3e47f858	0.1952833
65	0x3e213bf1	0.15745522
66	0x3ea0c179	0.31397608
67	0x3dcbc169	0.099489994
68	0x3e69cc0a	0.22831741
69	0x3e54d92a	0.20785967
70	0x3df697f9	0.12040705
71	0x3e682517	0.22670399
72	0x3ea0b52b	0.3138822
73	0x3e028741	0.12746908
74	0x3e7ae0da	0.24499837
75	0x3e014cdb	0.12626974
76	0x3e317617	0.17330204
77	0x3e417596	0.18892512
78	0x3dcebc1f	0.10094475
79	0x3e1eca09	0.15506758
80	0x3e3b5be7	0.18296777
81	0x3db0dda2	0.08636023
82	0x3e2501c9	0.16113962
83	0x3e0dbaaf	0.13840745
84	0x3e9e1fc7	0.3088362
85	0x3e12efd0	0.14349294
86	0x3e20c48f	0.15699981
87	0x3dfb5c7a	0.12273498
88	0x3eb4e4a9	0.35330704
89	0x3dde384f	0.10850584
90	0x3e4feeb7	0.20305906
91	0x3e112cc1	0.14177229
92	0x3e79e74f	0.24404643
93	0x3e5d38ee	0.21603748
94	0x3e1cbda9	0.15306725
95	0x3cb8359c	0.0224865
96	0x3d99e0ef	0.07513606
97	0x3dcdb527	0.10044318
98	0x3dd55e0f	0.10418331
99	0x3e3c6df8	0.18401325
100	0x3c139ad4	0.009009082
101	0x3c6af682	0.014340999
102	0x3d47665a	0.048681594
103	0x3e2a0681	0.16604044
104	0x3ea5a0a4	0.32349122
105	0x3e90e120	0.28296757
106	0x3db3bd81	0.087763794
107	0x3e493568	0.19649279
108	0x3dc194ff	0.09452247
109	0x3e0c5499	0.13704146
110	0x3e1e384d	0.15451165
111	0x3e5d4f47	0.21612273
112	0x3eaae6f6	0.33379334
113	0x3dec719f	0.11545109
114	0x3e5e8f2f	0.21734308
115	0x3de1b4e0	0.11020827
116	0x3d83d13c	0.06436393
117	0x3dc25187	0.09488206
118	0x3e4c28c9	0.19937433
119	0x3e4ef7df	0.20211743
120	0x3e2ea921	0.17056705
121	0x3e2e8c44	0.17045695
122	0x3e2ab5f4	0.16670972
123	0x3e4afbf1	0.1982267
124	0x3e507f2f	0.20361017
125	0x3e5c3077	0.21502863
126	0x3d92db04	0.0717068
127	0x3e369441	0.17829992
128	0x3de3dc92	0.11126055
129	0x3e12b43b	0.14326565
130	0x3e1f4bd1	0.15556265
131	0x3e08b4f7	0.13350283
132	0x3e044777	0.12917887
133	0x3e722d0a	0.23649994
134	0x3db1a3f1	0.086738475
135	0x3e0f0561	0.13966896
136	0x3e8d3a63	0.27583608
137	0x3e529491	0.20564486
138	0x3e377561	0.1791587
139	0x3e16c39b	0.14723055
140	0x3e9068ab	0.28204855
141	0x3e4c910f	0.1997721
142	0x3e44af5c	0.1920752
143	0x3e62abde	0.22135875

mobilenetv20_features_linearbottleneck2_batchnorm0_beta f4 [144]
0	0xbd1e8941	-0.038705114
1	0x3bc20b6f	0.005921773
2	0x3e290327	0.16505109
3	0xbdc78401	-0.097419746
4	0xbd9faabb	-0.07796236
5	0xbcf67749	-0.030086176
6	0x3cd768f9	0.026295172
7	0xbdc7c0f4	-0.097536
8	0xbdec4232	-0.11536063
9	0x3def5160	0.11685443
10	0xbd8023f0	-0.062568545
11	0x3e624e48	0.22100174
12	0x3e4eb4af	0.20186113
13	0x3e9beee1	0.30455688
14	0x3e81dab7	0.2536218
15	0x3d3a8ec4	0.04554631
16	0x3e21dc04	0.15806586
17	0x3e2b7ffa	0.16748038
18	0xbe11101c	-0.14166301
19	0x3e0e5d71	0.13902833
20	0xbcccfed0	-0.025023848
21	0x3ec78992	0.38972145
22	0x3eb3a9b2	0.35090405
23	0xbdcfc7e1	-0.10145546
24	0x3e43bd6a	0.19115224
25	0xbd5db15f	-0.054124232
26	0xbdce6d06	-0.10079388
27	0xbcf6b9e6	-0.03011794
28	0x3d76a4c0	0.06021571
29	0xbda9a905	-0.08284191
30	0x3e2486c1	0.1606703
31	0xbd7c7278	-0.061632603
32	0x3dff0aa9	0.12453205
33	0x3e6a5ce7	0.22887002
34	0x3d5f79e9	0.054559622
35	0x3e0a4645	0.13503368
36	0xbce52511	-0.027971776
37	0x3e205277	0.15656458
38	0x3e232a8f	0.15934204
39	0x3addeb08	0.0016931007
40	0x3d491521	0.049092416
41	0xbd9b9d17	-0.07598322
42	0xbd94de1f	-0.07268929
43	0x3d27a345	0.04092719
44	0x3d636de9	0.05552474
45	0xbddc3f19	-0.107542224
46	0xbe1bdcdd	-0.15220971
47	0xbd2d6520	-0.04233277
48	0xbdc19351	-0.094519265
49	0x3d2094f1	0.03920454
50	0xbc4d87f8	-0.0125446245
51	0xbcf26b31	-0.029592128
52	0x3d85f37f	0.06540584
53	0x3d60f5e2	0.054921992
54	0xbd0ba248	-0.03409031
55	0xbc8fa31b	-0.01753383
56	0xbe007391	-0.12544085
57	0xbde2e8a2	-0.110795274
58	0xbe03715f	-0.12836216
59	0x3d633f86	0.055480503
60	0x3db09329	0.086218186
61	0xbe02231f	-0.1270871
62	0xbe80a9b9	-0.25129488
63	0x3e21defb	0.15807717
64	0xbde1d632	-0.11027183
65	0x3cb16bdf	0.021657882
66	0xbe3d43e7	-0.18482934
67	0x3e2ad3d0	0.16682363
68	0xbdaa6d67	-0.08321648
69	0xbd1d8497	-0.038456526
70	0x3da20613	0.07911315
71	0xbd7099e2	-0.058740504
72	0xbdf0a2c6	-0.117497966
73	0x3df1bcc8	0.11803585
74	0xbddfcd11	-0.10927785
75	0xbe3446df	-0.1760516
76	0x3e2cfc61	0.1689315
77	0x3e32f61f	0.174767
78	0x3e18b803	0.14913945
79	0x3e4aa360	0.19788885
80	0x3dce3e59	0.100704856
81	0x3e651d62	0.2237449
82	0x3e2eb8e9	0.17062725
83	0x3e043de3	0.12914233
84	0xbdc47971	-0.095934756
85	0x3d331d94	0.04372938
86	0xbd3243b9	-0.043521617
87	0x3da33deb	0.07970794
88	0xbdb6ea8f	-0.08931457
89	0xbd35b74c	-0.04436426
90	0xbd0ee71f	-0.034888383
91	0xbc5742ae	-0.013138456
92	0xbd4b3899	-0.049614523
93	0x3b885b29	0.0041612578
94	0xbd6ea2ea	-0.058260836
95	0xbe042331	-0.1290405
96	0x3dcf53d1	0.101234086
97	0x3b531691	0.0032209496
98	0x3e155b84	0.14585692
99	0xbbe37611	-0.006941565
100	0xbd5cc8d7	-0.053902473
101	0xbcd777a1	-0.02630216
102	0x3e74c627	0.23903714
103	0xbbd680f8	-0.006546136
104	0xbe00e165	-0.12585981
105	0xbe51cbb7	-0.20487867
106	0x3e12dbf0	0.14341712
107	0x3dfd13fe	0.12357329
108	0x3d29be84	0.041441455
109	0x3df471d7	0.11935776
110	0x3d4fda79	0.05074546
111	0x3dc3dd7e	0.09563731
112	0xbe21f1f0	-0.15814948
113	0x3de3c2ae	0.111211166
114	0xbd346f06	-0.044051193
115	0x3de45f0a	0.1115094
116	0x3ed353e0	0.4127493
117	0x3dba09c8	0.09083897
118	0x3c8ac90d	0.016941572
119	0x3e8cb814	0.2748419
120	0xbc9f00c7	-0.01940955
121	0x3d1235cb	0.035695832
122	0x3e257ba5	0.16160448
123	0x3ddb5a9e	0.10710643
124	0x3d4e6fc9	0.050399575
125	0x3e099351	0.13435103
126	0x3e335c62	0.1751571
127	0x3d7a2c51	0.06107742
128	0x3e078620	0.13234758
129	0xbd71f6c2	-0.059073217
130	0x3e4ff7a7	0.20309316
131	0xbd09675f	-0.033545848
132	0xbd65a0da	-0.056061603
133	0x3cfeeb57	0.031118078
134	0x3e878151	0.26465848
135	0x3cb11688	0.021617189
136	0xbe222fdf	-0.15838574
137	0xbd8a1139	-0.06741566
138	0xbd177868	-0.036980063
139	0x3e2a2fd7	0.16619812
140	0xbd06a243	-0.03286959
141	0xbe316971	-0.17325379
142	0xbdc6f1f9	-0.09714121
143	0x3dcb3fd4	0.099242836

mobilenetv20_features_linearbottleneck2_batchnorm0_running_mean f4 [144]
0	0x37d18e3c	2.4980975e-05
1	0xb7c742b4	-2.375371e-05
2	0x38e80810	0.00011064124
3	0x3843130b	4.6509358e-05
4	0xb7387083	-1.0993451e-05
5	0x389b2436	7.397721e-05
6	0xb79d811e	-1.8775983e-05
7	0x38e29322	0.000108039254
8	0x38928756	6.987031e-05
9	0x39a6fd62	0.00031850772
10	0x38405b6e	4.5861518e-05
11	0x38e2c748	0.00010813639
12	0xb85da08f	-5.2840038e-05
13	0x391e6de4	0.00015108992
14	0xb8043232	-3.1518e-05
15	0xb942924f	-0.00018555786
16	0xb866e2a0	-5.5047334e-05
17	0xb9540c88	-0.00020222564
18	0x37fa0c45	2.9808036e-05
19	0x39297b5c	0.00016163051
20	0x39079f71	0.00012934
21	0x397e4a8b	0.00024251097
22	0xb8177bdc	-3.611656e-05
23	0x38f5a678	0.000117135176
24	0x3906e616	0.0001286495
25	0x397691ba	0.00023514676
26	0x394b664c	0.00019397697
27	0x394ca813	0.00019517569
28	0x38ba12f7	8.8727036e-05
29	0x37288db6	1.0046575e-05
30	0x38221091	3.863924e-05
31	0x394f7b8b	0.00019787082
32	0xb8880495	-6.485839e-05
33	0x37caeaca	2.4189609e-05
34	0x392f97e9	0.00016745891
35	0xb7942124	-1.7658407e-05
36	0xb8a7a0fc	-7.993166e-05
37	0x3799e744	1.8346713e-05
38	0xb5868f7d	-1.0025539e-06
39	0x3917af99	0.00014465897
40	0xb6b93643	-5.5197465e-06
41	0x3753369f	1.25892975e-05
42	0x38cdf45a	9.820676e-05
43	0x39880c9d	0.0002594934
44	0x38acc27a	8.237823e-05
45	0x38cd1237	9.7785545e-05
46	0x38e3c4c5	0.00010860855
47	0xb87e9110	-6.069342e-05
48	0x3955aba6	0.00020377207
49	0x389d776d	7.508588e-05
50	0xb8a5cacf	-7.905589e-05
51	0x39853f3a	0.00025414844
52	0x39084680	0.00012996234
53	0x38fdb044	0.00012096812
54	0x38f410a4	0.00011637926
55	0x38b73db7	8.737615e-05
56	0x39786352	0.00023688123
57	0x397f30c0	0.00024336856
58	0x38791b54	5.9391677e-05
59	0x38d5078e	0.00010158039
60	0x38abcfb1	8.192601e-05
61	0xb6c847f5	-5.9688414e-06
62	0x38b8d8f6	8.814216e-05
63	0x3985644a	0.00025442458
64	0xb6bb8716	-5.5887604e-06
65	0x36d7c957	6.4309384e-06
66	0x399a795b	0.00029463586
67	0x3907bce6	0.00012944973
68	0x3863b9f4	5.42942e-05
69	0x38dc1814	0.000104949024
70	0xb8d78e4a	-0.00010278502
71	0x3938abdb	0.00017611629
72	0x38477a4e	4.7559202e-05
73	0xb8afb436	-8.378217e-05
74	0x38f2b04c	0.00011572297
75	0xb894262b	-7.064299e-05
76	0xb84627bc	-4.7243884e-05
77	0xb9037bea	-0.00012539295
78	0xb8f9e7ea	-0.000119164426
79	0xb960726d	-0.00021404932
80	0xb866ef08	-5.505889e-05
81	0x388ac6e5	6.6174e-05
82	0x39a2656b	0.0003097461
83	0xb9713886	-0.00023004608
84	0x3994d7f1	0.0002838965
85	0x392409d6	0.00015643923
86	0xb88796c3	-6.465383e-05
87	0x3827e847	4.0032228e-05
88	0x39767f43	0.00023507797
89	0x37862deb	1.5995427e-05
90	0x3966f1ae	0.00022024542
91	0xb8658abe	-5.472707e-05
92	0x3977a435	0.00023616928
93	0xb870864d	-5.7345536e-05
94	0x3850c27b	4.977219e-05
95	0xb8986a84	-7.267765e-05
96	0xb7f38ebb	-2.9034321e-05
97	0xb79dc69c	-1.8808343e-05
98	0xb4209704	-1.49561e-07
99	0xb8173c5e	-3.6057427e-05
100	0x37ef4c60	2.8526585e-05
101	0xb643153a	-2.906962e-06
102	0x390dde5c	0.00013529643
103	0x38f93fa3	0.000118850985
104	0x39523b93	0.00020049354
105	0x384ef0c2	4.933845e-05
106	0x384a33d7	4.8208833e-05
107	0x39442f8e	0.00018709732
108	0x365ead87	3.3181584e-06
109	0x3941caa8	0.0001848141
110	0xb88b3140	-6.63721e-05
111	0x39b0ba26	0.00033708027
112	0x383355fe	4.2757012e-05
113	0xb93b7684	-0.0001787786
114	0x395b2c22	0.00020901908
115	0x3927195e	0.00015935811
116	0x398541ee	0.00025416858
117	0xb88b299f	-6.635789e-05
118	0xb9221486	-0.0001545717
119	0xb826f5fd	-3.980658e-05
120	0x39a22af1	0.00030931042
121	0xb75faafd	-1.3331647e-05
122	0x382724c0	3.985013e-05
123	0x37c828c4	2.386084e-05
124	0x38fe548f	0.00012127414
125	0x38b27693	8.5097876e-05
126	0xb89f89a5	-7.607349e-05
127	0x3914d1a8	0.00014192483
128	0x39354616	0.00017287614
129	0x3938befc	0.00017618755
130	0xb8a9b7d9	-8.092792e-05
131	0xb9251d4d	-0.00015746542
132	0xb7c49e00	-2.3438595e-05
133	0x388a533d	6.595857e-05
134	0xb8a2eb50	-7.768592e-05
135	0x389e80c5	7.558012e-05
136	0xb8c9e5dc	-9.6272415e-05
137	0x382c4335	4.1070587e-05
138	0xb7e93af4	-2.7803217e-05
139	0x38c2d72d	9.2907205e-05
140	0x39c1565c	0.0003687617
141	0x3899f866	7.341876e-05
142	0x390b437f	0.00013281217
143	0xb84f3649	-4.9403203e-05

mobilenetv20_features_linearbottleneck2_batchnorm0_running_var f4 [144]
0	0x3e254f94	0.16143638
1	0x3dd05045	0.1017156
2	0x3d7b9ce2	0.061428912
3	0x3dd527d8	0.1040799
4	0x3c462a2d	0.012095016
5	0x3dd7ef2a	0.10543664
6	0x3df0761a	0.11741276
7	0x3cdc93be	0.026925918
8	0x3de2f02c	0.110809654
9	0x3e3fe5ed	0.18740053
10	0x3b49dd05	0.0030801904
11	0x3df2f873	0.11863794
12	0x3d7e3860	0.062065482
13	0x3e1499db	0.14511816
14	0x3df0c041	0.117554195
15	0x3e1e47f3	0.15457134
16	0x3d20c631	0.03925151
17	0x3e20f2ad	0.15717573
18	0x3e03528c	0.12824458
19	0x3dfb7e7f	0.122799866
20	0x3dafec67	0.08590012
21	0x3e2588fa	0.16165534
22	0x3da0a2f4	0.07843581
23	0x3e837f43	0.2568303
24	0x3e81b227	0.25331232
25	0x3e53a3a2	0.2066789
26	0x3dda7c9e	0.106683
27	0x3ee2d831	0.44305566
28	0x3e4eb104	0.20184714
29	0x3e151afb	0.14561073
30	0x3da9d73e	0.08293007
31	0x3dd16b12	0.102255
32	0x3e549252	0.20758942
33	0x3da8f7bb	0.08250376
34	0x3e2cbadf	0.1686816
35	0x3d8d02c5	0.06885294
36	0x3d28bb16	0.041194044
37	0x3de73750	0.11289847
38	0x3dd756e3	0.10514619
39	0x3e0130f3	0.12616329
40	0x3e11140b	0.14167802
41	0x3b9c59fd	0.0047714696
42	0x3d30fc6e	0.043209486
43	0x3e06a83d	0.13150115
44	0x3d2e2d10	0.042523444
45	0x3ed5418b	0.41651568
46	0x3ddebb4b	0.10875567
47	0x3d81ba9a	0.063344195
48	0x3e0411e6	0.12897453
49	0x3e0a396b	0.13498466
50	0x3d7237bd	0.059135187
51	0x3e9d8f22	0.30773264
52	0x3e6e2524	0.23256356
53	0x3e47b3fe	0.19502255
54	0x3d6cc955	0.057809193
55	0x3e27089a	0.16311875
56	0x3f1a91d2	0.60378754
57	0x3e157d11	0.1459849
58	0x3d28a8d0	0.041176617
59	0x3d726188	0.059175044
60	0x3d93c028	0.07214385
61	0x3d544bbe	0.051830046
62	0x3e0e28d8	0.13882768
63	0x3df84934	0.121233374
64	0x3d6b783d	0.057487715
65	0x3d2d5b30	0.04232329
66	0x3e8c85d6	0.2744586
67	0x3dc44589	0.09583575
68	0x3daaa094	0.08331409
69	0x3e3a3696	0.18184885
70	0x3d37b488	0.044849902
71	0x3e9e9c18	0.30978465
72	0x3e5c9944	0.21542841
73	0x3db16991	0.08662713
74	0x3e9c01ee	0.30470222
75	0x3d65bdf4	0.056089357
76	0x3d8f7211	0.07004178
77	0x3e74ac14	0.23893768
78	0x3e140ee1	0.14458801
79	0x3e590504	0.2119332
80	0x3d60d15f	0.05488717
81	0x3e18d4bf	0.14924906
82	0x3e53906c	0.20660561
83	0x3efa1ba5	0.48849216
84	0x3f485ced	0.78266793
85	0x3dae82c7	0.085210375
86	0x3d7deb4a	0.061991967
87	0x3d8b1263	0.06790616
88	0x3f581664	0.84409165
89	0x3d31322e	0.043260746
90	0x3e1c40bb	0.15259068
91	0x3d9239a9	0.07139904
92	0x3edfcc75	0.43710676
93	0x3e971960	0.29511547
94	0x3d9d5980	0.076830864
95	0x3c8ed739	0.01743661
96	0x3d7f6c17	0.062358942
97	0x3cca4f1f	0.024695931
98	0x3d37016d	0.044679094
99	0x3dbdf172	0.09274568
100	0x3b3e8e26	0.0029076426
101	0x3a8bc440	0.0010663345
102	0x3d9a5d41	0.07537318
103	0x3dc84d19	0.0978033
104	0x3e6f8fc8	0.23394692
105	0x3e1708ca	0.14749447
106	0x3d9b3537	0.07578509
107	0x3dfdd38c	0.12393865
108	0x3d29d33c	0.041461214
109	0x3df976be	0.121808514
110	0x3dcd5bcf	0.10027277
111	0x3ee92329	0.45534638
112	0x3e8d89ed	0.27644292
113	0x3d54536d	0.051837374
114	0x3e0f793f	0.14011095
115	0x3d94c9e6	0.072650716
116	0x3eaab2b4	0.33339465
117	0x3d647364	0.055774108
118	0x3dc3a5a0	0.09553075
119	0x3e4002dd	0.18751092
120	0x3e451436	0.19245991
121	0x3d329120	0.043595433
122	0x3e243cf6	0.1603888
123	0x3e46f182	0.19428065
124	0x3d8c3508	0.068460524
125	0x3e9bfe9d	0.30467692
126	0x3d885184	0.06656173
127	0x3e077a2d	0.132302
128	0x3da5605e	0.08075021
129	0x3d5c17d1	0.05373365
130	0x3da6d040	0.08145189
131	0x3d9e199c	0.07719728
132	0x3d2c97d9	0.042137
133	0x3e10b297	0.14130627
134	0x3cfbdd1d	0.030745083
135	0x3d2e2efc	0.042525277
136	0x3e1f90b6	0.15582547
137	0x3e14c7f9	0.14529409
138	0x3dc1a75b	0.09455749
139	0x3e705090	0.23468232
140	0x3e213da2	0.15746167
141	0x3e4c33c2	0.19941619
142	0x3de8b5c0	0.11362791
143	0x3e15179f	0.14559792

mobilenetv20_features_linearbottleneck2_conv1_weight f4 [144, 1, 3, 3]
0	0xbe9410f8	-0.28919196
1	0x3e7b35ba	0.24532214
2	0x3f676331	0.9038573
3	0xbe9cf607	-0.30656454
4	0x3dbed7e0	0.09318519
5	0x3e387b99	0.18015899
6	0x3f63f177	0.8904032
7	0x3df81ba2	0.121146455
8	0x3f1ce951	0.6129351
9	0x3c0b84e1	0.0085155675
10	0x3ce433b7	0.02785669
11	0xbf41a32f	-0.75639623
12	0xbd8fd367	-0.07022744
13	0x3f16f77b	0.58971375
14	0x3e84ff19	0.25975874
15	0x3f2c6177	0.6733622
16	0xbe5e6921	-0.21719791
17	0xbea92069	-0.3303254
18	0xbd6179f1	-0.055047933
19	0xbe31b437	-0.17353903
20	0xbe804f48	-0.25060487
21	0xbf4fc17a	-0.81154597
22	0x3d337d89	0.04382089
23	0xbee2f402	-0.44326788
24	0xbf120741	-0.5704232
25	0x3e8edd60	0.2790327
26	0x3e880bcb	0.26571497
27	0xbf7239e6	-0.94619596
28	0x3c11e82b	0.008905451
29	0xbd541af8	-0.051783532
30	0x40133ec5	2.3007061
31	0xbd542788	-0.051795512
32	0x3e13ea8c	0.14444941
33	0x3dab27f4	0.0835723
34	0x3e86f970	0.2636218
35	0xbd6ca089	-0.057770286
36	0x3dfa8a57	0.122334175
37	0xbfbf4fb1	-1.4946195
38	0xbdfc4961	-0.123186834
39	0xc012e928	-2.2954807
40	0x3f3cd3b7	0.7376055
41	0xbb0cd050	-0.0021486469
42	0x3e829413	0.25503597
43	0xbfc74adf	-1.5569724
44	0xbce32dde	-0.027731832
45	0x3f03f927	0.5155205
46	0xbe1ddfec	-0.1541745
47	0x3ebc4411	0.3677068
48	0xbdd8ab79	-0.10579581
49	0xbe1dcc71	-0.1541002
50	0xbca4fbe7	-0.020139648
51	0xbdc5b2e4	-0.09653261
52	0x3e400396	0.18751368
53	0x3eed80e9	0.46387413
54	0x3e50cd86	0.20390901
55	0xbf7f235a	-0.9966332
56	0xbe855914	-0.26044524
57	0x3e991d3f	0.29905125
58	0x3e6762be	0.22596261
59	0xbebd6e59	-0.3699825
60	0xbe5151f7	-0.20441423
61	0x3db6843c	0.089119405
62	0x3e56849f	0.20949028
63	0x3dfae342	0.12250377
64	0xbd0f5b11	-0.034998957
65	0x3d988b53	0.07448449
66	0xbf4cb42f	-0.7996244
67	0xbd9ffd85	-0.07812027
68	0xba8ddd41	-0.0010823385
69	0x3e1ed1af	0.15509675
70	0xbdd05a70	-0.101734996
71	0xbec4dbaf	-0.38448855
72	0xbf21a55d	-0.6314295
73	0x3ea857d1	0.328795
74	0x3ecc060e	0.3984837
75	0x3e1d373d	0.15353103
76	0xbe0dee01	-0.13860323
77	0x3e4e4c2f	0.20146249
78	0xbd30f378	-0.04320094
79	0x3d5f36c1	0.054495577
80	0x3e644fc7	0.22296058
81	0xbf4c2288	-0.7974019
82	0x3e427950	0.1899159
83	0xbe5f18f8	-0.21786869
84	0xbdfd07ee	-0.12355028
85	0xbdce7252	-0.100803986
86	0xbed7cae9	-0.42146996
87	0xbeead7be	-0.45867723
88	0xbe5b9c27	-0.21446286
89	0x3e17b60b	0.14815538
90	0xbf498a2c	-0.7872646
91	0xbd9c198d	-0.07622061
92	0xbe847020	-0.25866795
93	0x3d95bcad	0.07311378
94	0xbdc7f1ba	-0.097629026
95	0xbb9ff818	-0.00488187
96	0xbcce98c9	-0.025219338
97	0xbd9f84c0	-0.07788992
98	0x3e9e21d4	0.30885184
99	0x3f024f43	0.50902194
100	0xbbd2b906	-0.006430748
101	0x3c7000c7	0.014648623
102	0xbe1aa894	-0.1510337
103	0xbeb1b8ca	-0.34711295
104	0xbeac2c99	-0.33627775
105	0x3e1a7541	0.15083791
106	0x3f94f0a5	1.1635939
107	0x3f86543f	1.049446
108	0xbe52ee32	-0.20598677
109	0x3f2299af	0.6351575
110	0x3d00df89	0.03146318
111	0x3ef86447	0.48514006
112	0xbc5be0d9	-0.013420307
113	0x3e780e67	0.24224244
114	0xbfa36010	-1.2763691
115	0xbe8b806b	-0.27246413
116	0xbae3c557	-0.0017377537
117	0xbf19c6d9	-0.6006904
118	0xbe8833a7	-0.26601908
119	0xbf3faf20	-0.74876595
120	0xbd41bcb9	-0.04729912
121	0x3ebe9081	0.37219623
122	0xbf193c37	-0.59857506
123	0xbd8f37bc	-0.06993052
124	0x3f9c4885	1.2209631
125	0x3cef3d50	0.02920404
126	0xbeaba6c8	-0.33525681
127	0xbe5ca191	-0.21546008
128	0xbe7c0177	-0.24609934
129	0xbe931645	-0.28727928
130	0x3e776def	0.2416303
131	0x3d953aa8	0.072865784
132	0x3d99ebb1	0.07515658
133	0xbed04b5e	-0.406825
134	0xbf09c60c	-0.5381782
135	0x3e247c01	0.16062929
136	0x3dbb54b1	0.09147013
137	0x3f24b49f	0.64338106
138	0x3c9f107f	0.019417046
139	0xbf089484	-0.53351617
140	0xbc406979	-0.011743897
141	0x3d9ea7f9	0.07746882
142	0xbe3658f9	-0.17807378
143	0x3f041799	0.5159851
144	0xbdc7c048	-0.097534716
145	0x3d9a1309	0.07523162
146	0x3f542e07	0.8288273
147	0xbf056c11	-0.5211802
148	0x3da18d71	0.07888306
149	0xbe835731	-0.2565246
150	0xbe1a06e8	-0.15041697
151	0x3e49e50c	0.1971628
152	0x3e87fcff	0.26560208
153	0xbefdb462	-0.49551684
154	0x3d534922	0.051583417
155	0x3eebdc99	0.4606674
156	0x3e34400c	0.17602557
157	0x3f12a2f1	0.5727988
158	0x3e4d7b18	0.20066488
159	0x3c24fa59	0.010069453
160	0xbef13bca	-0.47115928
161	0xbeac8071	-0.33691743
162	0xbc9a2ec4	-0.018821128
163	0xbe4903a8	-0.19630301
164	0x3d46bfbc	0.048522696
165	0xbf38f3b4	-0.7224686
166	0xbec11c86	-0.37717074
167	0x3f079617	0.52963394
168	0xbff42037	-1.9072331
169	0x3e8314c5	0.25601783
170	0x3e5ff522	0.21870854
171	0xbe7b8310	-0.24561715
172	0x3d6399c9	0.055566583
173	0xbee27829	-0.442323
174	0x3fd60ae1	1.672207
175	0xbe07ade5	-0.13249929
176	0xbe49a63e	-0.19692323
177	0xbd568299	-0.05237064
178	0x3dbbdce7	0.09172993
179	0xbf031003	-0.51196307
180	0xbd4b4717	-0.049628343
181	0xbfad8598	-1.3556395
182	0x3f0acf39	0.54222447
183	0xbf0d9717	-0.5530867
184	0x3f0b7de9	0.54489
185	0x3d97b223	0.07407024
186	0x3f70d560	0.94075584
187	0x3e3f3d1c	0.18675655
188	0xbe128c6c	-0.14311379
189	0x3df98c11	0.12184919
190	0xbdab11a4	-0.08352974
191	0xbd8fa4f8	-0.07013887
192	0x3d24a879	0.04019973
193	0xbe71b9d8	-0.2360605
194	0xbe63f669	-0.22261967
195	0xbe207ab1	-0.15671803
196	0x3e0899b9	0.1333989
197	0xbf6a42cf	-0.9150819
198	0x3ea70adf	0.3262548
199	0xbf1283af	-0.57232183
200	0xbe93d9f9	-0.28877237
201	0xbd8fa878	-0.07014555
202	0x3dfe9468	0.1243065
203	0x3f0a1b03	0.53947467
204	0xbe3e3d09	-0.1857797
205	0x3e6f55e2	0.23372605
206	0x3ed5ecf0	0.4178233
207	0x3e981863	0.29706106
208	0x3d304aec	0.0430402
209	0xbda15ccf	-0.0787903
210	0x3f78f6a8	0.9725137
211	0xbe11ce2d	-0.14238806
212	0x3cede8b9	0.029041635
213	0xbe699879	-0.2281207
214	0xbdbda2d9	-0.09259576
215	0x3eab6779	0.3347738
216	0x3d930394	0.07178417
217	0x3e9b828d	0.3037304
218	0x3f95781d	1.1677281
219	0x3e8b8b4f	0.27254722
220	0xbf6e84b7	-0.93171257
221	0x3e8642df	0.26222894
222	0x3d1ae720	0.037818074
223	0x3d29e8cb	0.041481774
224	0x3db473c7	0.08811145
225	0xbf5b2ac8	-0.85612154
226	0xbfc5d6ca	-1.5456173
227	0x3e823dfd	0.25437918
228	0xbb8b6c5f	-0.004254862
229	0xbe00c3c4	-0.12574679
230	0xbf3236c0	-0.6961479
231	0x3f531991	0.82460886
232	0xbe10cce7	-0.14140664
233	0x3e8c49af	0.27399966
234	0xbfb786d1	-1.4338018
235	0x3e497599	0.19673766
236	0xbd0b1389	-0.033954177
237	0x3dab68d1	0.083696015
238	0x3d378150	0.044801056
239	0x3e5a6a31	0.21329571
240	0x3e21d183	0.15802579
241	0x3e22b7dd	0.15890451
242	0x3f340634	0.70321965
243	0x3e806a31	0.25081018
244	0x3cc1e91c	0.023670726
245	0x3de9d9ef	0.11418521
246	0xbc7dbad7	-0.015486441
247	0x3e0bc66c	0.1364991
248	0xbe9f3dc8	-0.31101823
249	0x3e918d19	0.2842796
250	0x3eed9d90	0.46409273
251	0x3f1ddb71	0.61662966
252	0xbdee55aa	-0.11637433
253	0x3f41cf91	0.75707346
254	0x3dc72c87	0.0972529
255	0xbee5c0e1	-0.44873717

mobilenetv20_features_linearbottleneck2_batchnorm1_gamma f4 [144]
0	0x3e1530c8	0.1456939
1	0x3dadbd30	0.0848335
2	0x3e3f96bf	0.18709849
3	0x3dae1709	0.08500487
4	0x3d8e5679	0.06950087
5	0x3e07d829	0.13266052
6	0x3e6c32ef	0.23066305
7	0x3e048a3b	0.12943356
8	0x3e235759	0.15951289
9	0x3e2517bf	0.1612234
10	0x3d4c40cf	0.049866494
11	0x3e7804e8	0.24220622
12	0x3e05bbbc	0.13059896
13	0x3e5b23df	0.21400402
14	0x3e27f3c9	0.1640159
15	0x3d333d1c	0.04375945
16	0x3e038453	0.12843446
17	0x3dde7831	0.108627684
18	0x3e63b53e	0.22237107
19	0x3e50e6b0	0.204005
20	0x3e6fc24a	0.23413959
21	0x3ebd27c4	0.369444
22	0x3e2687b0	0.16262698
23	0x3e11edd9	0.14250888
24	0x3ec0a5d4	0.37626517
25	0x3dd06849	0.10176141
26	0x3e7fd6e7	0.24984322
27	0x3e194179	0.14966382
28	0x3da717b5	0.08158819
29	0x3e0b6def	0.13616155
30	0x3e8c05a1	0.27348045
31	0x3e1a2530	0.15053248
32	0x3e38dc80	0.18052864
33	0x3e864187	0.26221868
34	0x3e161cd9	0.14659442
35	0x3da7f417	0.08200853
36	0x3de438b2	0.11143626
37	0x3e64923e	0.22321412
38	0x3e7d7749	0.24752535
39	0x3e1e8ebf	0.15484141
40	0x3e5a40f1	0.21313836
41	0x3d933337	0.07187503
42	0x3e83bb77	0.25728962
43	0x3e80a327	0.25124475
44	0x3e321d02	0.17393878
45	0x3e0aaf99	0.13543548
46	0x3e0318d0	0.12802434
47	0x3eaf6d79	0.34263209
48	0x3e1f1725	0.15536173
49	0x3ddc17e7	0.107467465
50	0x3e04eee1	0.1298175
51	0x3e0aa487	0.13539325
52	0xbe3278e1	-0.17428924
53	0x3e6a30f1	0.22870232
54	0x3e29e2ab	0.16590373
55	0x3e5d4ca2	0.21611264
56	0x3e205301	0.15656663
57	0x3e1d1037	0.15338217
58	0x3e8aadc9	0.27085713
59	0x3e1bcaff	0.15214156
60	0x3e58496e	0.21121761
61	0x3dfbee47	0.12301307
62	0x3e068718	0.13137472
63	0x3e6573e7	0.22407494
64	0x3db2a0fc	0.087221116
65	0x3e486a44	0.19571787
66	0x3e502481	0.20326425
67	0x3e66ee3e	0.2255182
68	0x3de467a7	0.111525826
69	0x3de8bac2	0.11363746
70	0x3e1eff5b	0.15527098
71	0x3e20ece9	0.15715374
72	0x3e08b8a8	0.13351691
73	0x3e0ea5ad	0.13930388
74	0x3db03c9e	0.08605312
75	0x3e0e1bfb	0.13877861
76	0x3e3d7b3a	0.18504038
77	0x3e6ae671	0.22939469
78	0x3e03ccec	0.1287114
79	0x3e514bf2	0.20439127
80	0x3e53ab02	0.20670703
81	0x3df3b3ba	0.118995145
82	0x3ea206d9	0.3164585
83	0x3e8c7f91	0.27441075
84	0x3e146913	0.14493208
85	0x3e09a280	0.13440895
86	0x3e83c20d	0.25733986
87	0x3e71ebe7	0.23625146
88	0x3e30119c	0.17194217
89	0x3ddb89a2	0.10719611
90	0x3dd83479	0.10556883
91	0x3e411fe1	0.18859817
92	0x3e0d9b0f	0.13828681
93	0x3e1ed833	0.15512161
94	0x3ddd7020	0.10812402
95	0x3d87346c	0.066017956
96	0x3e305167	0.17218553
97	0x3e354b71	0.1770456
98	0x3e6df86f	0.23239301
99	0x3e11f23b	0.1425256
100	0x3cea02aa	0.028565723
101	0x3cfd3eaf	0.030913679
102	0x3e02daff	0.12778853
103	0x3dbb979c	0.091597766
104	0x3e00e7cd	0.12588425
105	0x3e6b6a6a	0.22989812
106	0x3e159971	0.14609315
107	0x3ea2db70	0.31808043
108	0x3e1d11f9	0.15338887
109	0x3df7af2a	0.12093957
110	0x3dfc8600	0.12330246
111	0x3e056917	0.1302837
112	0x3e0e1d59	0.13878383
113	0x3e4a3b9a	0.19749299
114	0x3e2fa739	0.17153634
115	0x3e320222	0.17383626
116	0x3e2fe6d6	0.171779
117	0x3e2d61a9	0.16931786
118	0x3e01476f	0.12624906
119	0x3e11977b	0.14217941
120	0x3e01b3db	0.12666266
121	0x3eb74b91	0.3579984
122	0x3e4357e6	0.190765
123	0x3e305211	0.17218806
124	0x3e6074a7	0.219195
125	0x3e3c6631	0.18398358
126	0x3e560458	0.20900095
127	0x3e14ef55	0.14544423
128	0xbe1c2164	-0.15247113
129	0x3e1e840c	0.1548006
130	0x3e70772a	0.23482957
131	0x3e1da721	0.15395786
132	0x3e2b92a7	0.16755162
133	0x3e52561e	0.20540664
134	0x3e10dd43	0.14146905
135	0x3e20ecf4	0.1571539
136	0x3dff2cc2	0.12459709
137	0x3e884538	0.2661531
138	0x3deaa971	0.114581
139	0x3e71a6a9	0.23598732
140	0x3e517e29	0.20458283
141	0x3e0b5161	0.13605262
142	0x3e08d710	0.1336329
143	0x3ea12db9	0.31480196

mobilenetv20_features_linearbottleneck2_batchnorm1_beta f4 [144]
0	0x3d805765	0.06266669
1	0x3eaef907	0.34174368
2	0x3c6d89de	0.014498202
3	0x3dbbd487	0.09171396
4	0xbc4c91ef	-0.012485965
5	0x3dbd6a5c	0.09248802
6	0x3d204a44	0.039133325
7	0xbdff95df	-0.124797575
8	0x3d412be1	0.047160987
9	0x3e8656a1	0.26237968
10	0x3c0f6b14	0.008753557
11	0x3ec5fc07	0.38668844
12	0x3eb22521	0.34793952
13	0x3d9eebe3	0.077598356
14	0x3e926267	0.285907
15	0x3eb09ca7	0.34494516
16	0x3e241268	0.16022646
17	0x3ea58d35	0.32334295
18	0xbdae1916	-0.085008785
19	0x3c91c045	0.017791877
20	0x3c4d93fa	0.012547487
21	0x3d9873a9	0.074439354
22	0x3ef0a8b2	0.47003704
23	0x3d8f5599	0.06998748
24	0xbdeaa3f2	-0.11457051
25	0x3eb56a54	0.35432684
26	0x3b71cb02	0.0036894684
27	0x3e2a13c4	0.16609102
28	0x3e854869	0.26031807
29	0x3dbfb95f	0.093615286
30	0xbcf3730e	-0.029717948
31	0xbdc7b049	-0.097504206
32	0x3e11c71f	0.14236115
33	0x3c480369	0.012207844
34	0x3ea058fc	0.3131789
35	0x3edaa409	0.42703274
36	0x3e820b09	0.25399044
37	0x3cfba6d7	0.030719204
38	0x3d2897e3	0.041160475
39	0xbd14bdd5	-0.03631385
40	0xbca8c357	-0.020600958
41	0x3c2efc50	0.010680273
42	0xbd7ecce9	-0.062207136
43	0xb92907e7	-0.0001612004
44	0x3b7ac7c2	0.0038266038
45	0x3d9b0528	0.07569343
46	0x3d1f6ce1	0.038922194
47	0x3dc853ba	0.097815946
48	0x3df60f06	0.12014584
49	0x3d945d7b	0.072443925
50	0x3e9f2197	0.31080315
51	0x3e79a57e	0.24379537
52	0x3ea8079f	0.32818314
53	0xbdf2dc46	-0.1185842
54	0x3d72ebf1	0.059307043
55	0xbe8b47c9	-0.27203205
56	0x3e237ec1	0.15966322
57	0xbc14dc00	-0.009085655
58	0xbd951ab1	-0.072804816
59	0x3e5a8811	0.21340968
60	0xbc36e59f	-0.011163144
61	0xbd2b3ee6	-0.04180803
62	0xbdc28212	-0.09497465
63	0x3cde3678	0.027125582
64	0x3d1a4e2d	0.03767221
65	0x3df7f098	0.121064365
66	0x3c64056e	0.01391731
67	0x3e82f06d	0.25574055
68	0x3d823ea3	0.06359603
69	0x3e8b2677	0.27177784
70	0x3e1a21ed	0.15052004
71	0x3e079620	0.13240862
72	0x3e0d188d	0.13778897
73	0x3ee128c7	0.43976423
74	0x3d5043f1	0.050846044
75	0x3d3787f2	0.044807382
76	0x3e19a168	0.15002978
77	0x3d85a37d	0.065253235
78	0x3ee50f12	0.4473806
79	0x3f21c065	0.63184196
80	0x3e678592	0.22609547
81	0x3d7e4fcf	0.06208783
82	0xbe5e0be2	-0.2168422
83	0x3e93dba5	0.28878513
84	0x3e3947e7	0.18093835
85	0x3e77a917	0.24185596
86	0x3d911d31	0.07085646
87	0xbdc98a22	-0.098408
88	0x3e4a4569	0.1975304
89	0x3d2c082e	0.04199999
90	0x3e3533b6	0.17695507
91	0xbdf34129	-0.11877663
92	0x3dc6cc77	0.09706967
93	0x3e62836e	0.22120449
94	0xbcdd16c6	-0.026988398
95	0xbb00affb	-0.0019636143
96	0x3e116019	0.14196815
97	0xbdbef819	-0.093246646
98	0x3ca62f13	0.020286119
99	0x3b5878c6	0.003303097
100	0xbc7c41a2	-0.015396507
101	0xbc06a601	-0.008218289
102	0x3e83e491	0.2576032
103	0x3e87a2ff	0.26491544
104	0x3e14de69	0.14537968
105	0xbd8c1e7b	-0.06841751
106	0x3e7416c0	0.23836803
107	0xbbd134ef	-0.006384484
108	0x3e04f301	0.12983324
109	0x3ebb2719	0.36553267
110	0x3d6e741f	0.05821621
111	0x3ec363bc	0.3816203
112	0x3dea4d1e	0.1144049
113	0x3e000450	0.12501645
114	0xbbce65ce	-0.006298757
115	0x3e37fb09	0.17966856
116	0x3f013c1c	0.50482345
117	0x3da9a510	0.08283436
118	0x3e6b78ff	0.22995375
119	0x3ebcf460	0.36905193
120	0x3e1f8dc5	0.15581425
121	0xbe1ee021	-0.15515186
122	0x3e5e6031	0.21716382
123	0x3eaed967	0.3415024
124	0xbdb4a1a6	-0.088198945
125	0x3eb17bd0	0.34664774
126	0x3de008b1	0.10939158
127	0x3e65f631	0.22457196
128	0x3ead3409	0.33828762
129	0x3cd4444e	0.025911476
130	0xbcadfdf4	-0.021239258
131	0x3e31ba24	0.17356163
132	0xbd878efd	-0.0661907
133	0x3de1687e	0.110062584
134	0x3ef6aa88	0.4817698
135	0x3e8b5dd5	0.27220026
136	0x3d900b37	0.07033389
137	0xbdb7da38	-0.08977169
138	0x3dbece1f	0.09316658
139	0xbdaeb0ee	-0.085298404
140	0x3cca3054	0.024681248
141	0xbdf1514a	-0.11783083
142	0x3ca082fd	0.01959371
143	0xbc38e9f9	-0.011286252

mobilenetv20_features_linearbottleneck2_batchnorm1_running_mean f4 [144]
0	0x3d465b19	0.04842672
1	0x3c3bddb6	0.011466434
2	0xbe90c112	-0.282723
3	0x3d27664c	0.040869042
4	0x80000004	-6e-45
5	0x3d18b6e3	0.03728379
6	0xbd9ff350	-0.0781008
7	0xbc1c538f	-0.009541406
8	0x3ca32471	0.019914838
9	0xbe869ce8	-0.26291585
10	0x1b11222b	1.2005159e-22
11	0x3ee02ae4	0.43782723
12	0xbd92f918	-0.07176417
13	0xbe512dda	-0.20427647
14	0xbece8799	-0.40337828
15	0x3d998aee	0.07497202
16	0x3d855915	0.06511132
17	0x3cf37a35	0.029721359
18	0xbcf4552c	-0.02982577
19	0x3d1c53e7	0.038165953
20	0x3c0f7df5	0.008758058
21	0xbf046c66	-0.517279
22	0x3e38e981	0.18057825
23	0x3d03dae4	0.032191172
24	0x3e830426	0.25589103
25	0xbdabab54	-0.083822876
26	0xb8f002a2	-0.00011444582
27	0x3dcc9f9b	0.0999138
28	0xbc4b0ee2	-0.012393685
29	0x3dcb04fa	0.099130586
30	0xbe25fc63	-0.16209559
31	0x3bf218b1	0.0073881974
32	0x3dd28627	0.10279494
33	0xbe52a679	-0.20571317
34	0xbe0ea12d	-0.13928671
35	0x3cbef4b4	0.023310043
36	0xbd1b5aa5	-0.037928242
37	0xbdf80e09	-0.12112052
38	0x3cfafe14	0.030638732
39	0x3b639a55	0.003472944
40	0x3bd7e3fc	0.006588457
41	0x80000002	-3e-45
42	0xbcc70d7a	-0.024298418
43	0xbb823fe9	-0.003974904
44	0x3d030dd3	0.031995606
45	0x3d378efe	0.044814102
46	0x3d140202	0.036134727
47	0xbe38bb31	-0.18040158
48	0x3e1e357e	0.15450093
49	0x3dfeef58	0.12447995
50	0xbd70e5d4	-0.05881293
51	0x3d8ed8ad	0.069749214
52	0xbe05b32e	-0.13056633
53	0x3cfc0e52	0.030768547
54	0xbd465cef	-0.048428472
55	0x3d46ed6f	0.048566278
56	0x3e32ad6e	0.1744897
57	0xbab7039c	-0.0013962868
58	0xbbe96425	-0.007122534
59	0x3d83708c	0.06417951
60	0x3e4370f0	0.19086051
61	0x3baf9fdc	0.005359633
62	0xb9c8cdbe	-0.00038300263
63	0xbec2c012	-0.38037163
64	0x3e252c1b	0.16130106
65	0xbd1ae027	-0.037811425
66	0x3c346c6a	0.011012176
67	0x3ebd38a9	0.3695729
68	0x3dcf0824	0.101089746
69	0xbdb184f6	-0.086679384
70	0x3e3064f6	0.17226014
71	0x3dc290fa	0.09500308
72	0x3e388c63	0.18022303
73	0xbdfc6e98	-0.123257816
74	0x3cab5da0	0.020918667
75	0x3d35c790	0.04437977
76	0xbd8dd1ca	-0.0692478
77	0xbe7aedd6	-0.2450479
78	0x3d097c76	0.03356596
79	0x3e184aed	0.14872332
80	0x3ecc7097	0.3992965
81	0x3e36a0fa	0.17834845
82	0x3df63392	0.12021555
83	0x3ea1ceec	0.3160318
84	0x3e200740	0.15627766
85	0x3c67689e	0.014124064
86	0x3cb96e2b	0.02263554
87	0x3d2861fa	0.041109063
88	0x3e7719ee	0.24130985
89	0x3cbfffcb	0.023437401
90	0x3d3a802f	0.0455324
91	0x3e00a95a	0.12564602
92	0x3dadc3cd	0.08484612
93	0x3e85ceec	0.2613443
94	0x3db0af94	0.08627239
95	0x2a3c356a	1.6716286e-13
96	0x3e1836aa	0.14864603
97	0x3cd2305a	0.025657821
98	0xbe1c0f08	-0.15240109
99	0x3dce8057	0.10083073
100	0x00000004	6e-45
101	0x3182fc4b	3.8121803e-09
102	0xbcf940a7	-0.030426336
103	0x3c3915b7	0.011296681
104	0x3dbcda1e	0.0922129
105	0xbc3aa3c2	-0.011391582
106	0xbd4f6c73	-0.050640535
107	0x3c92bd03	0.017912393
108	0x3de8cd66	0.11367302
109	0xbd796b67	-0.060893442
110	0x3d907d51	0.07055152
111	0xbd8b9485	-0.06815437
112	0x3e2b181f	0.1670842
113	0x3e0a48bc	0.13504308
114	0xbd5ec5d3	-0.05438788
115	0x3e41f6aa	0.18941751
116	0x3f54c16d	0.83107644
117	0x3c75b19a	0.014995957
118	0x3e008069	0.12548985
119	0x3ea86d72	0.32896
120	0x3e2800de	0.16406581
121	0xbe16d2d2	-0.14728859
122	0x3ec4870a	0.38384277
123	0x3e8f001a	0.27929765
124	0xbd1f46ec	-0.038885996
125	0x3effead6	0.49983853
126	0xbdfbdf2b	-0.12298425
127	0x3e8a4324	0.2700435
128	0x3dbdee96	0.09274022
129	0x3c5c518e	0.0134471785
130	0xbeb14662	-0.3462401
131	0x3dcce05b	0.1000373
132	0xbc80f5cc	-0.015742205
133	0xbdf88368	-0.12134439
134	0xba8794e7	-0.0010344059
135	0x3c99a283	0.01875425
136	0x3d9da96a	0.07698329
137	0xbd7e6e57	-0.062116947
138	0x3d012b74	0.03153558
139	0x3d3fceaf	0.04682797
140	0x3c59343a	0.013257081
141	0x3d3e3c35	0.046444137
142	0x3bfc68e4	0.0077029336
143	0x3bb6cad9	0.0055783805

mobilenetv20_features_linearbottleneck2_batchnorm1_running_var f4 [144]
0	0x3ad2ccd4	0.0016082772
1	0x3c116567	0.008874274
2	0x3c728582	0.014802339
3	0x3c25e309	0.01012493
4	0x00000004	6e-45
5	0x3b3627e7	0.002779478
6	0x3ca1d2e9	0.01975389
7	0x3a2fe602	0.0006709994
8	0x3b9dc1ed	0.0048143775
9	0x3c9799dd	0.018505985
10	0x153feab2	3.8757285e-26
11	0x3cc5f899	0.024166392
12	0x3c3f7bda	0.011687243
13	0x3c96bd0a	0.018400688
14	0x3c040018	0.008056663
15	0x3b80a162	0.0039254883
16	0x3b8bd5d0	0.004267432
17	0x3bb63a00	0.0055611134
18	0x3bc04b7a	0.0058683725
19	0x3c300f97	0.010745904
20	0x3cc498a8	0.023998573
21	0x3c27ac68	0.010233976
22	0x3c009217	0.0078473305
23	0x3b21a088	0.0024662334
24	0x3cc0c616	0.023531955
25	0x3c449186	0.011997586
26	0x3c3ae5cc	0.011407327
27	0x3c1571cd	0.0091213705
28	0x3b725389	0.003697606
29	0x3cb56b40	0.022145867
30	0x3c80bd38	0.015715227
31	0x3a174910	0.000577108
32	0x3d0aac08	0.033855468
33	0x3d08e478	0.03342101
34	0x3c5433a9	0.01295177
35	0x3b80575d	0.0039166645
36	0x3cb34ad7	0.021886272
37	0x3cc8c8be	0.024509784
38	0x3c048573	0.008088457
39	0x39cf2cf6	0.00039515615
40	0x3c479d4f	0.012183501
41	0x00000004	6e-45
42	0x3c2a21fb	0.010384078
43	0x3d1b3b18	0.037898153
44	0x3bdcb7a8	0.0067357607
45	0x3bba8127	0.0056916657
46	0x3c5a60f2	0.013328778
47	0x3d96f862	0.07371594
48	0x3d343c64	0.044002905
49	0x3c9c3567	0.019068433
50	0x3c1644c9	0.009171673
51	0x3bd42b47	0.0064748856
52	0x3c16d64b	0.009206365
53	0x3afc6ea5	0.0019259049
54	0x3c84bfc8	0.01620473
55	0x3b6bcc37	0.0035979876
56	0x3d3237e3	0.04351033
57	0x3a1f490f	0.0006076255
58	0x3a46f823	0.0007590076
59	0x3b803b89	0.003913347
60	0x3c2b9a97	0.010473869
61	0x3b4bbb0b	0.0031086828
62	0x38a42505	7.827025e-05
63	0x3ce5f97f	0.02807307
64	0x3e1ba2f6	0.15198883
65	0x3c3aa7d1	0.01139255
66	0x3ce25fc6	0.027633559
67	0x3d3b4bf4	0.04572673
68	0x3d0cb38c	0.034350917
69	0x3cd53dc3	0.026030427
70	0x3d0160e7	0.031586554
71	0x3c3331bb	0.01093715
72	0x3d45e928	0.04831806
73	0x3d237c6f	0.03991359
74	0x3a8c01ac	0.0010681651
75	0x3cc32210	0.023819953
76	0x3d894179	0.06701941
77	0x3e00a78e	0.12563917
78	0x3c4fc8f9	0.012682193
79	0x3e10c85e	0.14138934
80	0x3e7d8fbd	0.24761863
81	0x3c9720b9	0.01844822
82	0x3c170a21	0.0092187235
83	0x3db711cb	0.089389406
84	0x3cf8c84f	0.030368952
85	0x3b66bb28	0.0035206769
86	0x3bbd4670	0.005776219
87	0x3b634052	0.003467579
88	0x3d6685a2	0.056279786
89	0x3b70d5b0	0.0036748461
90	0x3b8cf7ab	0.0043019853
91	0x3d679dea	0.056547083
92	0x3c1ed806	0.009695059
93	0x3d5699ba	0.0523927
94	0x3cbacbba	0.022802223
95	0x284abe06	1.1254457e-14
96	0x3c75db0e	0.01500584
97	0x3bac34ca	0.0052553164
98	0x3c199bad	0.009375495
99	0x3d33b330	0.04387206
100	0x00000004	6e-45
101	0x2cc3fa5e	5.5700297e-12
102	0x3a1e6eec	0.00060437503
103	0x3ab00fb1	0.0013432411
104	0x3c1bf1c4	0.009518091
105	0x3a8f45c3	0.0010930825
106	0x3a75de5a	0.0009379141
107	0x3ca81b16	0.020520728
108	0x3c4ec922	0.012621196
109	0x3c3b5155	0.011432965
110	0x3c818fbe	0.015815612
111	0x3b7ae724	0.0038284743
112	0x3d3b5c5e	0.045742385
113	0x3cd78cb4	0.02631221
114	0x3cf40069	0.029785352
115	0x3c8678c7	0.016415013
116	0x3cf2a1f5	0.029618243
117	0x3c06c083	0.008224609
118	0x3d36e614	0.044653013
119	0x3d85b6b2	0.06528987
120	0x3ccfb843	0.025356418
121	0x3db19c01	0.086723335
122	0x3dc94dbe	0.09829281
123	0x3cfaccf2	0.030615304
124	0x3c065c93	0.008200782
125	0x3db9e98e	0.0907775
126	0x3bde88a2	0.0067911902
127	0x3d07fbb5	0.03319903
128	0x3c4b9f58	0.012428127
129	0x3bd84e57	0.0066011357
130	0x3d2f6de9	0.042829428
131	0x3d54b2a4	0.051928177
132	0x3b0cf1f7	0.0021506527
133	0x3d3f6858	0.04673037
134	0x3b641858	0.003480455
135	0x3c805d67	0.015669538
136	0x3ca7406c	0.02041646
137	0x3c9531f1	0.01821229
138	0x3ab0728a	0.001346187
139	0x3be6de46	0.00704554
140	0x3bd3c5eb	0.0064628026
141	0x3c755a7c	0.014975186
142	0x3b3c6410	0.0028746165
143	0x3caa1952	0.020764027
