apps/hannk/test/misc/bad_fully_connected.tflite (tflite, 928 bytes, 1 tensors)

bad_weights u1 [3, 10] scale=0.003071 zero_point=139
000000 51 3e 6a 6d 12 44 c8 b0 3e a6 b8 a5 77 b3 b1 7d
       -0.178118 -0.236467 -0.101343006 -0.092130005 -0.371591 -0.218041 0.187331 0.113627 -0.236467 0.082917005 0.13819501 0.079846 -0.06142 0.12284 0.116698004 -0.042994
000010 6f a8 f4 51 3e 6a 6d 12 44 c8 b0 3e a6 a6
       -0.085988 0.089059 0.32245502 -0.178118 -0.236467 -0.101343006 -0.092130005 -0.371591 -0.218041 0.187331 0.113627 -0.236467 0.082917005 0.082917005
